taxi-dqn-agent-1.pt (torch, 75528 bytes, 6 tensors)

0.weight f4 [128, 7]
0.09314085 -0.14591472 0.18502468 0.32884085 0.17464541 0.27361333 0.23035963 0.27586743
0.043905735 0.067560546 0.29461995 0.26162985 0.26633573 0.227195 -0.030351486 -0.25411832
0.14322016 0.02405418 0.27169383 0.09704704 0.29743648 -0.3895101 -0.0006808005 -0.002442004
0.32292414 -0.17731121 -0.17242467 -0.21545392 0.20103103 0.22107658 0.13057326 0.16750391
0.22831424 0.06913418 0.26585072 0.19430524 0.008465734 0.0010183312 0.13688678 -0.63459116
0.21248671 0.2196877 -0.036361974 -0.03799904 -0.32798284 0.2978016 0.3066573 0.31655994
0.3116487 0.053230125 -0.06929417 -0.17639741 -0.011591282 0.054344922 -0.052607417 -0.011968584
-0.0915926 0.041334506 0.10048294 0.089449614 0.2510048 0.23117948 0.2326467 0.18800291
0.0007405991 0.0027537683 0.059498794 -0.0722085 -0.11078678 0.029409364 0.1555784 0.054845124
0.11497268 0.09953638 -0.20975363 0.0653039 -0.2091736 0.04886592 -0.0015977087 -0.004172655
-0.39232808 0.2944579 -0.4241169 0.2762164 -0.07007325 -0.010798848 -0.011717367 -0.4738123
0.29298112 0.30273166 -0.49222258 0.13602047 -0.19551562 -0.26318827 0.18150976 0.16030702
0.21028237 0.1968556 -0.05431612 -0.009788669 -0.012407483 -0.41117123 0.3082348 0.31941113
-0.46740153 -0.046481937 -0.24380441 0.38092813 0.07562942 -0.19518478 0.0072974022 0.08519051
-0.11255558 0.09984807 -0.24155627 0.14414993 0.24887519 0.23200203 0.28628328 0.017908344
-0.0028782445 -0.0077277063 -0.2655693 0.194845 -0.2922261 0.20801173 0.007305439 -0.002199484
-0.0134356115 -0.54804766 0.15643157 0.22224471 0.20935483 0.0052919607 -0.0019271848 -0.0052292286
0.3087304 0.33625057 -0.42709234 -0.45614135 0.2844754 -0.0053220303 -0.014331131 -0.38342848
0.28445378 0.30447894 -0.38050452 -0.09340867 -0.013134418 -0.0148926545 -0.41734305 0.27802667
0.33426422 -0.44118723 0.10384777 0.111835025 0.048823837 -0.06351819 0.21237159 -0.0010627586
-0.039182257 -0.0075495387 -0.010129016 -0.016709568 -0.016896026 -0.016419215 -0.037630893 0.020741945
-0.11443902 0.0006479644 0.00049972354 0.18388638 -0.5926566 0.12826121 0.16643256 0.07060299
-0.002828394 -0.0035642695 0.1954769 0.19234817 -0.26043645 -0.21083388 -0.11294332 -0.0018032099
-0.0048152762 -0.49875486 0.31381655 -0.4907065 0.31348187 0.122365125 -0.120772816 -0.2067615
-0.011744929 -0.049357854 0.14297302 -0.25720626 0.0033445412 0.011163957 0.012781654 -0.45739728
0.3100835 -0.24222228 0.19556732 0.1094143 0.07834281 0.14269777 -0.15221019 -0.04675808
-0.22044195 0.11872576 -0.0285224 -0.0008365798 -0.0021882898 -0.795415 0.23455156 0.22361588
0.22316435 -0.11369789 0.0009319968 0.0022399153 -0.07123616 -0.094648935 -0.08831678 -0.13660336
0.29071423 0.053775016 -0.0012516169 -0.33720413 -0.12118191 -0.05659262 -0.0848496 -0.14680214
-0.12913285 -0.31425253 0.25381327 0.30958834 0.32453892 0.2740819 0.08773981 0.003936292
-0.003965566 0.26539323 -0.3693326 0.3034534 -0.3995451 0.026988525 0.06618398 0.032618977
-0.24743144 0.17209773 0.04904999 -0.107001744 -0.3035094 0.0983039 0.11485573 0.22338483
00000000: a1c0 be3d ab6a 15be 1c77 3d3e d45d a83e
00000010: 3fd6 323e 0c17 8c3e 65e3 6b3e 7f3e 8d3e
00000020: 80d6 333d 2f5d 8a3d 6dd8 963e 59f4 853e
00000030: 285d 883e cea5 683e aea3 f8bc cc1b 82be
00000040: 4ea8 123e 460d c53c 741b 8b3e 99c0 c63d
00000050: 9849 983e de6d c7be c077 32ba 070a 20bb
00000060: 5056 a53e 1291 35be 1890 30be f49f 5cbe
00000070: 14db 4d3e e661 623e ffb4 053e 2586 2b3e
00000080: 35cb 693e 3996 8d3d 961d 883e f4f7 463e
00000090: ddb3 0a3c 8679 853a 0c2c 0c3e 9174 22bf
000000a0: 1e96 593e d0f5 603e 4bf0 14bd e2a4 1bbd
000000b0: 5eed a7be 7479 983e 3002 9d3e 2514 a23e
000000c0: 6b90 9f3e d507 5a3d 1aea 8dbd 86a1 34be
000000d0: 5ce9 3dbc c898 5e3d e07a 57bd e117 44bc
000000e0: e794 bbbd 5f4e 293d 00ca cd3d 5c31 b73d
000000f0: b383 803e 50ba 6c3e f03a 6e3e d683 403e
00000100: c424 423a 9178 343b 02b5 733d 0de2 93bd
00000110: 2ee4 e2bd e8eb f03c f24f 1f3e 48a5 603d
00000120: cc76 eb3d bbd9 cb3d a8c9 56be 0dbe 853d
00000130: 9b31 56be a227 483d 356a d1ba c4ba 88bb
00000140: 3adf c8be 30c3 963e da25 d9be 3c6c 8d3e
00000150: 9082 8fbd a7ed 30bc 33fa 3fbc 8797 f2be
00000160: 9f01 963e a5ff 9a3e 9904 fcbe f348 0b3e
00000170: 3f35 48be 9dc0 86be b2dd 393e 8627 243e
00000180: 4354 573e 8494 493e 947a 5ebd a760 20bc
00000190: c148 4bbc 0985 d2be f4d0 9d3e db89 a33e
000001a0: 414f efbe d863 3ebd dda7 79be 0309 c33e
000001b0: 99e3 9a3d 85de 47be 0c1f ef3b 5d78 ae3d
000001c0: 8a83 e6bd 257d cc3d 875a 77be 0a9c 133e
000001d0: 23d9 7e3e f191 6d3e b993 923e 85b4 923c
000001e0: eea0 3cbb b338 fdbb b3f8 87be 7385 473e
000001f0: a99e 95be 0701 553e 7762 ef3b 3825 10bb
00000200: 0a21 5cbc da4c 0cbf 992f 203e 1e94 633e
00000210: 1d61 563e 2f68 ad3b 9799 fcba f359 abbb
00000220: e911 9e3e 0929 ac3e d9ab dabe 5c8b e9be
00000230: c2a6 913e 6d64 aebb 1fcd 6abc bd50 c4be
00000240: eda3 913e aae4 9b3e 7dd1 c2be 0b4d bfbd
00000250: be31 57bc 5200 74bc fdad d5be 8359 8e3e
00000260: ae24 ab3e 4be3 e1be 24ae d43d c309 e53d
00000270: 81fb 473d d315 82bd f077 593e 434c 8bba
00000280: 937d 20bd 1f62 f7bb 2cf4 25bc 81e2 88bc
00000290: 8969 8abc 9781 86bc da22 1abd 03eb a93c
000002a0: 015f eabd 28dc 293a e1ff 023a b64c 3c3e
000002b0: 58b8 17bf e856 033e 4c6d 2a3e 4d98 903d
000002c0: 945c 39bb 8596 69bb 192b 483e ebf6 443e
000002d0: ed57 85be d6e4 57be d44e e7bd af59 ecba
000002e0: 77c9 9dbb cc5c ffbe 90ac a03e e23d fbbe
000002f0: b280 a03e 919a fa3d bd57 f7bd 49b9 53be
00000300: cd6d 40bc 762b 4abd 8567 123e 8ab0 83be
00000310: 1730 5b3b 08e9 363c 246a 513c fa2f eabe
00000320: 44c3 9e3e 1e09 78be cd42 483e 9b14 e03d
00000330: 3272 a03d 5d1f 123e fddc 1bbe 6785 3fbd
00000340: 89bb 61be 7e26 f33d cfa7 e9bc ec4d 5bba
00000350: 6969 0fbb 51a0 4bbf 492e 703e 90fb 643e
00000360: 3285 643e 70da e8bd 3f51 743a 8bcb 123b
00000370: 44e4 91bd 4dd7 c1bd 6edf b4bd c0e1 0bbe
00000380: 7fd8 943e 3143 5c3d 4b0d a4ba 05a6 acbe
00000390: 392e f8bd aacd 67bd a1c5 adbd 4d53 16be
000003a0: 673b 04be b5e5 a0be d0f3 813e 5d82 9e3e
000003b0: f729 a63e 7654 8c3e eeb0 b33d 03fc 803b
000003c0: 94f1 81bb 9fe1 873e 2a19 bdbe 3e5e 9b3e
000003d0: 2d91 ccbe 0a17 dd3c 778b 873d 7a9b 053d
000003e0: ab5e 7dbe 633a 303e a4e8 483d bb23 dbbd
000003f0: 9665 9bbe 8e53 c93d 7b39 eb3d febe 643e

0.bias f4 [128]
-0.071388915 0.06389809 -0.051607583 0.24106142 -0.07717059 0.0629684 0.06417385 0.102347866
0.059733983 0.095220596 0.06962023 0.24246287 0.36534613 0.11420908 0.24513105 0.097080514
-0.16931918 0.15061237 -0.048365775 0.23538673 0.16669105 0.24026455 -0.05112224 -0.04192809
0.1132831 0.080637544 0.35911474 -0.08381118 0.19807036 0.079726934 0.11291963 0.39214754
-0.095793396 0.039834972 0.19594283 0.13843215 0.03531294 0.122399405 0.25096855 0.120171815
0.026480759 -0.054989457 0.060508706 0.06302236 0.00980617 0.18421617 -0.10131687 0.21819608
0.33686417 0.0005838921 0.0643043 0.27837145 0.24094698 0.021364095 -0.15569215 0.23703901
0.3051881 0.043761287 0.017722482 0.04541814 0.21148346 0.14093985 0.28524786 -0.19875093
0.023130152 0.040085133 0.19166072 0.006833704 0.25915983 -0.02663074 -0.21566172 -0.17847513
0.2643887 0.4019823 -0.21335596 0.30739534 0.11214198 0.1277775 0.06386242 0.37201485
0.18165195 0.23591809 0.2744533 0.36137968 0.20343263 0.2634571 0.04830989 -0.18361874
0.21978441 0.3366965 0.14249697 -0.1475176 0.21892257 0.2475254 0.11169964 0.060834594
0.2784633 -0.035538726 -0.1417682 -0.123991266 -0.2808995 0.31427348 0.012696537 -0.10205459
-0.028961768 -0.022833642 -0.11086617 -0.14368068 -0.051271204 0.187726 0.12617876 0.036425605
0.010708479 0.17970821 0.31443444 -0.089325875 0.06790603 0.24419065 -0.25867105 0.08766307
0.059898134 0.15758267 0.33772686 0.03872002 0.12487099 -0.004563819 0.0690896 -0.33165324
00000000: 5a34 92bd 00dd 823d 7962 53bd ced8 763e
00000010: 9d0b 9ebd 94f5 803d 946d 833d c29b d13d
00000020: 9fab 743d 0403 c33d 0d95 8e3d 3048 783e
00000030: a60e bb3e 73e6 e93d a203 7b3e 26d2 c63d
00000040: 0262 2dbe 213a 1a3e 311b 46bd 3809 713e
00000050: 0fb1 2a3e e907 763e 8e65 51bd cabc 2bbd
00000060: f800 e83d 4c25 a53d e3dd b73e 32a5 abbd
00000070: f5d2 4a3e e047 a33d 6842 e73d 90c7 c83e
00000080: 542f c4bd ff29 233d 3da5 483e 28c1 0d3e
00000090: 4da4 103d 8aac fa3d f37e 803e a41c f63d
000000a0: 2dee d83c a03c 61bd fad7 773d de11 813d
000000b0: 0faa 203c 2aa3 3c3e 387f cfbd cb6e 5f3e
000000c0: 7679 ac3e 5610 193a f9b1 833d b486 8e3e
000000d0: ceba 763e c103 af3c c36d 1fbe 5bba 723e
000000e0: 9d41 9c3e 093f 333d bd2e 913c 5f08 3a3d
000000f0: 1f8f 583e 8952 103e 020c 923e 5d85 4bbe
00000100: 727b bd3c 4f30 243d b542 443e 44ed df3b
00000110: 99b0 843e b628 dabc 6dd6 5cbe 2fc2 36be
00000120: f55d 873e a0d0 cd3e fc79 5abe ec62 9d3e
00000130: b2aa e53d 1bd8 023e 4dca 823d bb78 be3e
00000140: f802 3a3e 8394 713e 2585 8c3e c206 b93e
00000150: a550 503e d9e3 863e 97e0 453d 8d06 3cbe
00000160: 2a0f 613e 7c63 ac3e baea 113e db0e 17be
00000170: 3d2d 603e 4c77 7d3e c8c2 e43d b22d 793d
00000180: be92 8e3e 0e91 11bd af2b 11be 22ef fdbd
00000190: 0fd2 8fbe 74e8 a03e 2305 503c ff01 d1bd
000001a0: 3b41 edbc 9e0d bbbc cd0d e3bd 0721 13be
000001b0: c101 52bd 3f3b 403e 0135 013e 0433 153d
000001c0: 9e72 2f3c 6e05 383e 8dfd a03e 7cf0 b6bd
000001d0: 5112 8b3d 1d0d 7a3e 8870 84be b288 b33d
000001e0: bf57 753d 5a5d 213e 89ea ac3e e298 1e3d
000001f0: 5dbc ff3d 178c 95bb d97e 8d3d 74ce a9be

2.weight f4 [128, 128]
0.035738636 0.049180333 -0.038853794 0.030193822 0.110562794 -0.023458594 -0.01159985 0.027781412
0.0443025 0.06066389 0.15710777 -0.04701209 0.02712946 -0.004372139 0.00790364 0.09139757
-0.07843942 -0.052892387 -0.19661793 -0.023573022 -0.05859114 -0.056805544 0.20685436 0.007060537
0.027767284 -0.06177921 -0.016872408 0.12701108 -0.015706312 0.16560291 -0.13089906 0.08947511
-0.029518692 0.0014747796 0.012569705 0.056870062 0.06860655 0.07780343 0.05523318 0.13642101
-0.013140272 0.01778478 0.033987116 0.08298869 -0.028866114 -0.04072244 0.009388101 0.017911298
0.08877488 -0.8249494 0.06013668 0.0248677 -0.09562631 -0.08353524 0.15146172 -0.11936005
0.019101333 0.054921042 -0.18024151 0.05953235 -0.015860198 0.00063488405 0.0348997 0.10771507
0.02254165 0.05193088 0.00802686 0.038483564 0.0019940005 -0.0062448597 0.02507156 -0.030638332
0.023633942 0.038594633 0.0015250846 0.11990657 -0.00072384684 -0.1071331 -0.06455326 0.05115274
-0.09696882 0.017372632 0.012760506 0.13773993 0.035964966 0.04512572 0.028083637 0.02858625
-0.065578185 0.08516058 0.020372653 0.04180502 0.1759787 0.04936641 -0.05308366 0.055737745
-0.036920458 -0.14571942 -0.038358003 0.058510125 -0.011587376 -0.0023087463 -0.29704395 0.079911076
-0.041422013 -0.024838232 0.14652947 0.07908698 -0.10664292 0.11996769 0.0709824 0.02913788
-0.0024224662 -0.023016104 0.01070959 -0.05362251 -0.0035222748 0.114983976 -0.06194611 0.10872166
0.0620754 -0.04545438 0.046159472 0.0075403517 -0.07123712 -0.39612058 -0.092840545 -0.014720815
0.023408871 0.03166658 0.023090713 0.024022244 0.020979835 -0.062255766 0.0147335455 0.011502784
0.028130932 0.013255271 0.0835503 -0.006912951 0.019603353 -0.011251852 -0.005775089 0.10411228
-0.06059097 -0.014850761 -0.12423301 0.0046832897 -0.108227946 -0.030975008 0.16145308 0.008900485
0.019928372 -0.036870252 0.031571113 0.33342195 0.07054263 0.13733356 -0.037324443 0.05882387
-0.24949627 0.02089215 -0.0033220067 0.042042892 0.076006934 0.059507813 0.035854746 0.14344494
0.069324404 0.055292748 0.038091786 0.078217566 -0.0551562 -0.0016777093 0.008945639 0.004156794
0.041311603 -0.6154586 0.049880974 0.04168132 -0.06642092 -0.069983944 0.11577752 -0.014185311
-0.0032531163 0.02588916 -0.16376165 0.0361584 -0.021649145 0.06459101 0.09090259 0.03239135
0.012429413 0.04353554 -0.0377489 -0.012853346 -0.0026012943 0.0055094785 -0.041355584 -0.062684804
0.023273334 -0.010294142 -0.06671528 0.09185431 -0.029453628 -0.021895634 -0.060352135 -0.020500867
-0.09636643 -0.014653803 0.0022103088 0.06911821 0.011498035 -0.019071799 0.01830752 -0.0024876443
-0.032570913 0.07577159 -0.15395902 0.0627869 0.12929021 0.007495429 -0.07570551 0.03611038
-0.0036948284 -0.1358993 -0.03249294 0.06641456 -0.043908216 0.004250877 0.3132331 0.034961767
-0.036849145 -0.006389032 -0.020379366 0.036993247 -0.03769389 0.0594476 0.036953453 0.026063072
0.030006826 -0.07347479 0.008219815 -0.077040374 0.021744723 0.04728447 -0.09619522 0.08311093
0.07373911 -0.0056117876 0.03186289 0.019887824 -0.08605879 -0.30833936 -0.068705544 -0.051214226
00000000: ad62 123d 5171 493d 2825 1fbd 0959 f73c
00000010: bf6e e23d 3d2c c0bc 4c0d 3ebc d895 e33c
00000020: 8a76 353d b37a 783d dce0 203e c08f 40bd
00000030: 9a3e de3c 2944 8fbb 457e 013c a62e bb3d
00000040: d9a4 a0bd b0a5 58bd 3656 49be 361c c1bc
00000050: 43fd 6fbd eeac 68bd a1d1 533e 145c e73b
00000060: 3778 e33c 320c 7dbd 0138 8abc 310f 023e
00000070: 86aa 80bc cf93 293e 670a 06be ba3e b73d
00000080: 2fd1 f1bc 644d c13a 2af1 4d3c 95f0 683d
00000090: 9781 8c3d 6857 9f3d 303c 623d f3b1 0b3e
000000a0: 4c4a 57bc 63b1 913c 1336 0b3d f9f5 a93d
000000b0: a178 ecbc 93cc 26bd 8dd0 193c b7ba 923c
000000c0: 9bcf b53d e22f 53bf e151 763d 59b7 cb3c
000000d0: bad7 c3bd 8614 abbd c818 1b3e 0b73 f4bd
000000e0: 667a 9c3c e3f4 603d 3b91 38be 32d8 733d
000000f0: 3fed 81bc 596e 263a fdf2 0e3d b899 dc3d
00000100: 44a9 b83c 79b5 543d 1783 033c f1a0 1d3d
00000110: c7ad 023b aea1 ccbb df62 cd3c 3dfd fabc
00000120: f89b c13c 6815 1e3d 59e5 c73a 9391 f53d
00000130: 8ac0 3dba 9968 dbbd 8034 84bd 8985 513d
00000140: 9797 c6bd 0d51 8e3c 7111 513c b20b 0d3e
00000150: 0050 133d bfd5 383d a80f e63c b62d ea3c
00000160: db4d 86bd ac68 ae3d 8de4 a63c be3b 2b3d
00000170: c333 343e 6f34 4a3d 406e 59bd 434d 643d
00000180: e839 17bd 7937 15be 481d 1dbd 50a8 6f3d
00000190: fad8 3dbc 564e 17bb 2516 98be 6ba8 a33d
000001a0: 21aa 29bd 8c79 cbbc d20b 163e 5bf8 a13d
000001b0: 9a67 dabd 9fb1 f53d 385f 913d 90b2 ee3c
000001c0: 3dc2 1ebb 458c bcbc 4777 2f3c 47a3 5bbd
000001d0: f7d5 66bb b87c eb3d 34bb 7dbd 76a9 de3d
000001e0: c642 7e3d 5f2e 3abd b711 3d3d 0e15 f73b
000001f0: c4e4 91bd 51d0 cabe 2f23 bebd 932f 71bc
00000200: f6c3 bf3c d1b4 013d bc28 bd3c 4cca c43c
00000210: e7dd ab3c e7ff 7ebd f864 713c 2c76 3c3c
00000220: d772 e63c a32c 593c 6b1c ab3d 0986 e2bb
00000230: 3697 a03c b059 38bc f53c bdbb d238 d53d
00000240: 3d2e 78bd 9b50 73bc e06d febd 4876 993b
00000250: 9da6 ddbd 4dbf fdbc f553 253e 57d3 113c
00000260: d340 a33c 4305 17bd b650 013d 48b6 aa3e
00000270: a878 903d 2ba1 0c3e 84e1 18bd 4cf1 703d
00000280: f37b 7fbe 0426 ab3c 06b6 59bb 2b35 2c3d
00000290: 86a9 9b3d 77be 733d 6ddc 123d 3be3 123e
000002a0: f4f9 8d3d a67a 623d 2206 1c3d 8830 a03d
000002b0: 78eb 61bd 95e6 dbba bb90 123c b735 883b
000002c0: 5b36 293d b28e 1dbf fe4f 4c3d 08ba 2a3d
000002d0: b107 88bd be53 8fbd c41c ed3d 8269 68bc
000002e0: 3c32 55bb 8115 d43c 22b1 27be d51a 143d
000002f0: 8c59 b1bc 4b48 843d 232b ba3d cbac 043d
00000300: bda4 4b3c 5352 323d 979e 1abd d796 52bc
00000310: 7a7a 2abb db88 b43b 7964 29bd e460 80bd
00000320: b8a7 be3c c3a8 28bc 05a2 88bd 1d1e bc3d
00000330: bc48 f1bc 795e b3bc cd33 77bd 6ff1 a7bc
00000340: c35b c5bd 8116 70bc d4da 103b d98d 8d3d
00000350: 4162 3c3c 763c 9cbc a7f9 953c bf07 23bb
00000360: 1469 05bd 232e 9b3d 6fa7 1dbe 6b96 803d
00000370: a764 043e 379c f53b 7e0b 9bbd 7ae8 133d
00000380: ef24 72bb 3029 0bbe 5117 05bd 5b04 883d
00000390: 1ad9 33bd f14a 8b3b 1760 a03e 1234 0f3d
000003a0: 21ef 16bd 165b d1bb a1f2 a6bc 3b86 173d
000003b0: e964 1abd 547f 733d 815c 173d 3982 d53c
000003c0: e0d0 f53c f379 96bd 67ac 063c 58c7 9dbd
000003d0: fd21 b23c 5cad 413d 0002 c5bd 1036 aa3d
000003e0: 8804 973d 16e3 b7bb a982 023d caeb a23c
000003f0: 973f b0bd a8de 9dbe 7eb5 8cbd 02c6 51bd

2.bias f4 [128]
0.06678327 0.025675125 0.021165404 -0.050198343 0.035415906 0.027761659 0.009913175 -0.03420684
0.054063726 0.039660174 0.06832693 -0.008941437 -0.029217973 0.13804966 -0.024779713 0.03229781
0.03510083 0.032858398 0.032580085 0.060012847 -0.052549176 -0.041395795 0.0016864812 -0.004625308
-0.040522855 0.025140146 -0.062453624 -0.029970327 0.0042961277 0.03262917 0.041016888 0.015407147
0.021850817 0.110948734 0.029052092 -0.010363059 0.012545346 0.03322501 0.02593408 -0.008062579
-0.05356256 0.031569846 -0.06239777 -0.057483546 0.049886897 0.033678833 -0.012453375 -0.012447752
0.043511063 -0.10796841 0.0100278435 0.08476588 0.02302202 0.019622818 -0.050082456 -0.014264057
0.052555155 0.01509288 0.03907398 0.06445667 -0.073605895 -0.07036845 0.026530663 -0.029750414
0.029736584 -0.059136033 -0.00424768 0.03957104 0.025847508 0.03454655 0.060540766 -0.015337329
-0.032026444 -0.026573496 0.051634762 0.05830445 0.004198426 0.027571285 0.10460433 0.07428186
0.030955348 -0.020385355 0.14804381 -0.014387419 0.038542833 0.026728326 -0.045951646 0.05601037
-0.009552974 -0.035651885 -0.07341413 -0.03188146 0.010237787 -0.04754369 0.012420832 -0.017277543
0.006521771 0.021836903 -0.030836308 0.022060158 -0.0057397047 -0.075383045 0.00094199146 -0.032352813
0.023625791 0.009037082 0.10203069 0.050532106 -0.008849945 0.007100132 0.007542084 0.041622777
0.03616138 0.06929552 0.05773418 0.0122557385 0.033054173 0.021420576 -0.029726923 0.0185966
0.05058635 0.012913154 0.0366151 0.034508202 0.03322486 0.0010885834 0.008421609 -0.007956532
00000000: abc5 883d a454 d23c 1263 ad3c c79c 4dbd
00000010: 4510 113d 6b6c e33c df6a 223c 791c 0cbd
00000020: ed71 5d3d b572 223d fdee 8b3d 1b7f 12bc
00000030: 885a efbc e45c 0d3e d3fe cabc b54a 043d
00000040: e3c5 0f3d 8796 063d b272 053d 08d0 753d
00000050: ce3d 57bd a38e 29bd eb0c dd3a e58f 97bb
00000060: 4bfb 25bd b5f2 cd3c 5fcf 7fbd 5584 f5bc
00000070: 88c6 8c3b 2aa6 053d 5301 283d 426e 7c3c
00000080: 7c00 b33c 1739 e33d a7fe ed3c d2c9 29bc
00000090: ff8a 4d3c f316 083d b573 d43c e818 04bc
000000a0: 6a64 5bbd 624f 013d ce94 7fbd de73 6bbd
000000b0: 3456 4c3d d1f2 093d 3e09 4cbc a8f1 4bbc
000000c0: a838 323d 8b1e ddbd d34b 243c bc99 ad3d
000000d0: ad98 bc3c 08c0 a03c 4323 4dbd cbb3 69bc
000000e0: 1344 573d 2148 773c 0a0c 203d dc01 843d
000000f0: b0be 96bd 551d 90bd d556 d93c 24b7 f3bc
00000100: 239a f33c a038 72bd 1f30 8bbb 3e15 223d
00000110: 27be d33c af80 0d3d 98f9 773d 6c49 7bbc
00000120: 292e 03bd a9b0 d9bc f97e 533d a6d0 6e3d
00000130: f392 893b 2ddd e13c cc3a d63d 1621 983d
00000140: 1296 fd3c 30ff a6bc cc98 173e 36b9 6bbc
00000150: 17df 1d3d 5df5 da3c cb37 3cbd 216b 653d
00000160: 1484 1cbc b607 12bd 265a 96bd 2296 02bd
00000170: 64bc 273c 2cbd 42bd bf80 4b3c a289 8dbc
00000180: 95b4 d53b 4ee3 b23c 6d9c fcbc 81b7 b43c
00000190: 2214 bcbb 6d62 9abd faef 763a 6284 04bd
000001a0: e08a c13c 4510 143c 77f5 d03d c1fa 4e3d
000001b0: 5cff 10bc 39a8 e83b 9623 f73b a57c 2a3d
000001c0: f51d 143d cfea 8d3d ad7a 6c3d 4bcc 483c
000001d0: d063 073d 347a af3c e085 f3bc e657 983c
000001e0: a233 4f3d b291 533c b7f9 153d 7958 0d3d
000001f0: ca16 083d ccae 8e3a cafa 093c 1d5c 02bc

4.weight f4 [6, 128]
-0.06504138 -0.09784865 0.18455449 0.10375118 0.2057043 -0.15365045 0.23981929 -0.5644161
0.047232196 0.07154341 0.1963726 -0.4704134 -0.5392397 0.14312199 0.11693171 0.14792046
0.15559554 -0.12766065 0.071134396 0.124551274 -0.55699545 -0.00041207048 0.016612679 -0.009035463
0.09381633 0.17465067 -0.5383237 0.033912435 -0.4375013 0.06528761 0.059150446 0.061912283
0.25369138 -0.10351008 -0.011844981 -0.008906925 -0.17071341 0.0684769 0.1309368 0.10529725
-0.57968 -0.14640711 0.15642425 0.21846218 0.11957423 0.20157005 0.079293996 -0.33854187
0.19722793 -0.6198044 -0.064905725 -0.23010983 -0.08607537 -0.120873734 -0.49499804 0.0974326
0.14752345 0.08405519 0.16887492 -0.12551512 0.2231003 -0.526487 -0.13210945 -0.5109757
0.13699596 -0.55695385 -0.44288617 0.120507926 0.021037817 0.13886692 -0.10381955 0.5584175
0.10500492 -0.50146794 0.16294776 -0.061948247 -0.4692174 0.029609572 -0.047703788 0.045858547
0.08271583 0.16034953 -0.2635179 -0.5494468 0.0937284 0.12324793 0.06281241 0.25280195
0.21551344 0.17678505 -0.5604186 -0.54131013 0.09754697 -0.55786026 -0.19904491 0.0946969
0.06378534 0.14787984 0.33113298 0.06694942 -0.35511625 -0.50156665 0.17760067 0.09636858
-0.063278146 -0.11122147 0.16855194 0.15367194 -0.52143645 0.04224704 0.06719937 -0.17390184
-0.18759303 -0.16089217 0.16441943 0.026780562 -0.39224938 -0.51509094 0.13633616 0.09098882
0.15956809 -0.058412954 -0.05174418 -0.036999706 -0.044863436 -0.31240827 0.048723355 0.022232393
-0.14029914 -0.081537075 0.18784072 0.10829024 0.29427302 -0.0719097 0.18317422 -0.5441684
0.20707056 0.10311993 0.23899792 -0.471679 -0.5365274 0.14371504 0.2634174 0.1003562
0.17433374 -0.073923975 0.11823171 0.13149144 -0.56265205 -0.07703169 -0.016302126 0.008503783
0.19475803 0.11009842 -0.5492332 0.11244865 -0.45465916 0.023876937 0.18831402 0.016538603
0.20275016 -0.12534474 -0.083282866 0.010110484 -0.07044687 0.058357637 0.16368176 0.10638615
-0.55803657 -0.12777849 0.09921764 0.2843981 0.15887068 0.1273259 0.08954126 -0.419488
0.18899065 -0.6381029 0.04587829 -0.20402756 0.016509471 -0.05613603 -0.49851683 0.09054283
0.10365765 0.07994389 0.13938542 -0.052848775 0.20195504 -0.50831807 -0.025444666 -0.5003249
0.027772093 -0.5517219 -0.39317054 0.13079588 -0.052822553 0.14808151 0.12860718 0.53207505
0.20659398 -0.49784833 0.23525105 -0.12448163 -0.44376093 0.031616874 -0.13583268 -0.033500247
-0.027012827 0.09421343 -0.23970684 -0.53978187 0.11282568 0.07346301 0.04846082 0.221062
0.019181354 0.21000634 -0.560242 -0.52080834 0.08258831 -0.5806141 -0.19476587 0.13146505
0.06953019 0.12734722 0.31320477 0.070454165 -0.3336159 -0.50238496 0.09545127 0.12785241
0.019626617 -0.18142971 0.1409408 0.11103344 -0.49890342 0.002846549 0.037008878 -0.0948719
0.03274759 -0.30453327 0.13187242 0.04424226 -0.34732258 -0.5636748 0.115282886 0.035772394
0.13603102 0.031202089 -0.10140387 -0.1274787 -0.060424514 -0.37317637 0.12440048 0.14865358
00000000: 6a34 85bd df64 c8bd dafb 3c3e 807b d43d
00000010: 26a4 523e 8b56 1dbe 3093 753e 937d 10bf
00000020: 8c76 413d 5a85 923d e615 493e 06da f0be
00000030: 9d0b 0abf 928e 123e e479 ef3d 7678 173e
00000040: 7054 1f3e 79b9 02be e9ae 913d bd14 ff3d
00000050: 4197 0ebf 2a0b d8b9 5017 883c 7b09 14bc
00000060: c722 c03d a0d7 323e 95cf 09bf c4e7 0a3d
00000070: 2c00 e0be 83b5 853d bd47 723d bc97 7d3d
00000080: d6e3 813e 18fd d3bd 7411 42bc 5aee 11bc
00000090: 7fcf 2ebe 9e3d 8c3d 4c14 063e 16a6 d73d
000000a0: e965 14bf bfeb 15be ae2d 203e 8db4 5f3e
000000b0: 55e3 f43d 6168 4e3e e464 a23d 5c55 adbe
000000c0: 1ef6 493e 80ab 1ebf 4bed 84bd e9a1 6bbe
000000d0: 4948 b0bd a68c f7bd 6270 fdbe be8a c73d
000000e0: 6310 173e 2125 ac3d 8ced 2c3e 0987 00be
000000f0: 6874 643e dac7 06bf b347 07be 4ecf 02bf
00000100: ab48 0c3e 8794 0ebf fac1 e2be dccc f63d
00000110: 8057 ac3c 2133 0e3e 589f d4bd 73f4 0e3f
00000120: d20c d73d 3460 00bf c7db 263e 72bd 7dbd
00000130: 433d f0be c68f f23c 0c65 43bd 2cd6 3b3d
00000140: eb66 a93d ab32 243e d1eb 86be 8ca8 0cbf
00000150: adf4 bf3d 6969 fc3d cba3 803d 426f 813e
00000160: 8eaf 5c3e 2407 353e 9877 0fbf 4d93 0abf
00000170: b5c6 c73d eecf 0ebf 6ed2 4bbe 73f0 c13d
00000180: e3a1 823d d06d 173e 438a a93e c71c 893d
00000190: ccd1 b5be ac66 00bf f3dc 353e e45c c53d
000001a0: f997 81bd 15c8 e3bd e198 2c3e 2d5c 1d3e
000001b0: dc7c 05bf 3b0b 2d3d d39f 893d 5313 32be
000001c0: 6318 40be ebc0 24be 915d 283e e962 db3c
000001d0: e9d4 c8be 00dd 03bf b59b 0b3e 5958 ba3d
000001e0: d165 233e 6c42 6fbd b5f1 53bd 018d 17bd
000001f0: b9c2 37bd faf3 9fbe 2492 473d b520 b63c
00000200: 94aa 0fbe e9fc a6bd 5159 403e 46c7 dd3d
00000210: f4aa 963e 6545 93bd 0692 3b3e 9f4e 0bbf
00000220: 4e0a 543e 8b30 d33d dfbb 743e e97f f1be
00000230: dc59 09bf 092a 133e a5de 863e 8d87 cd3d
00000240: 8b84 323e 7465 97bd 7723 f23d b1a5 063e
00000250: f709 10bf cac2 9dbd 098c 85bc 7353 0b3c
00000260: a66e 473e 487b e13d 8c9a 0cbf 7a4b e63d
00000270: 16c9 e8be 9199 c33c 64d5 403e f77b 873c
00000280: bd9d 4f3e 5f5a 00be 3590 aabd 72a6 253c
00000290: 7346 90bd 6b08 6f3d 319c 273e fbe0 d93d
000002a0: 7cdb 0ebf 5dd8 02be 9e32 cb3d a19c 913e
000002b0: ffae 223e b961 023e 6861 b73d 22c7 d6be
000002c0: c486 413e b65a 23bf e0ea 3b3d 9aec 50be
000002d0: df3e 873c e5ee 65bd 993d ffbe 856e b93d
000002e0: 764a d43d 9fb9 a33d 0dbb 0e3e f577 58bd
000002f0: 4dcd 4e3e 2221 02bf 5571 d0bc 4b15 00bf
00000300: 4d82 e33c a53d 0dbf a64d c9be 5bef 053e
00000310: 765c 58bd aea2 173e 9ab1 033e 1236 083f
00000320: 5f8d 533e fae5 febe a7e5 703e 3af0 febd
00000330: a234 e3be b280 013d b917 0bbe 8e37 09bd
00000340: 014a ddbc f9f2 c03d b675 75be 252f 0abf
00000350: 2611 e73d c673 963d da7e 463d 145e 623e
00000360: 3722 9d3c e70b 573e 056c 0fbf b253 05bf
00000370: 0f24 a93d 20a3 14bf b470 47be c69e 063e
00000380: d865 8e3d 4f67 023e 605c a03e 464a 903d
00000390: b4cf aabe 4d9c 00bf f57b c33d beeb 023e
000003a0: 00c8 a03c b6c8 39be c952 103e 8065 e33d
000003b0: 4570 ffbe 2b8d 3a3b 9f96 173d 334c c2bd
000003c0: 5622 063d c9eb 9bbe 9009 073e 5f37 353d
000003d0: 44d4 b1be fe4c 10bf 6f19 ec3d 1386 123d
000003e0: b74b 0b3e 869b ff3c d5ac cfbd c789 02be
000003f0: b27f 77bd f910 bfbe aec5 fe3d a538 183e

4.bias f4 [6]
0.0194743 0.0124053955 0.027715249 0.028320571 -0.0068369214 -0.011308698
00000000: 9188 9f3c 0040 4b3c 170b e33c 8b00 e83c
00000010: 4108 e0bb 1e48 39bc
