taxi-dqn-agent.pt (torch, 75528 bytes, 6 tensors)

0.weight f4 [128, 7]
00000000: f40f 06bd 51e0 cd3c d7fa b4bc 0764 883e
00000010: 5034 80bf a5a3 8c3e bab6 b53e df30 9eb9
00000020: 0949 33bc 2a4e 39bb faf2 2dbb 1f4b 6fbb
00000030: e6d2 0cbb 8df0 86ba 1f07 5bbd 0232 50be
00000040: 23fb bb3d 9453 553d f101 a2bd 3205 59bc
00000050: 350e 93bb 4e90 12bb a8cd 4439 1b1a bb3a
00000060: 05ac 14bb f056 65ba 1662 3db8 6e04 22ba
00000070: 76ac aabd fab4 3d3c 8db3 18bc 850d c13e
00000080: 8d20 8b3e 0db9 bf3e a724 c93e 6ba1 11bd
00000090: b881 8bbc 1d71 27bd 5821 0a3e e6a9 3b3e
000000a0: 556d 4b3e 733c d0be 63f6 b9bc b4a5 e5bc
000000b0: f1ef 53be afda edbb 1f6b 88bc db3c 813d
000000c0: e79f 383e d887 273d b96b 3c3a 4d55 c93c
000000d0: d942 a63e 238f c63e b22c 06bf 2be5 bfbe
000000e0: ebc5 d73b 9bbd 50bd 554c 95bc e144 353e
000000f0: beb9 a8bd 272c 69be 7e30 86be 5c04 1d3e
00000100: 7347 8cbd b0df bf3e 22fa bfbb e697 233d
00000110: 144e a33c aaf6 253d b862 88be 135a 9a3d
00000120: eefa 003f 2800 7abc 353c aabc e658 1cbb
00000130: 6537 6ebe 124a 003e a723 13be 308e ddbd
00000140: d0bd 30bc b3f1 a7bd 34f2 17be 2771 593d
00000150: 9cf6 043d 0a9b fc3b 1fb2 86bb b09d 7fbe
00000160: a4af 1cbe 01a5 d53e 9792 8bbe e5d2 743c
00000170: f0d1 9bbd 5d24 4abd 7f52 023e 3269 863d
00000180: 62d7 523e c693 163e 8112 ff3e c9ad 1b3d
00000190: daa4 21bd a0ae cebd 78bc d73d 58fe 67bd
000001a0: 4c12 abbd 3ba0 aa3c 9388 d93d 4d6f 83bd
000001b0: 4a53 b53d 705f 8f3d bc7f ff3d a4b2 2d3d
000001c0: 0508 013d 40b5 13bf a88a 69bd 7180 0f3d
000001d0: 1f65 54be 87b2 8ebc 826e d5bb 9331 683d
000001e0: af2a cb3b ebfd 29bb 56bb 41be dc8e 18be
000001f0: ef12 bd3e 648c 7ebe a5d7 37bd d670 27be
00000200: 7842 673d fb6f 023d 03d7 43bd f621 c9bd
00000210: 0874 86bd e794 6e3c b896 f1bc ead8 1e3d
00000220: 73bf 13be 0d49 9f3e 9d1f 1dbe 1b42 27be
00000230: 3339 46be f7d6 16bc 240b 863c 18ce c73e
00000240: 749e d8be 7ffa d73e 5f2b 37bf f76b 123d
00000250: 2eb0 4bb9 0ac5 efbb 2b66 5abf c01e 863e
00000260: e920 6b3e 43a1 8e3e 09a6 0d3d bb76 76bd
00000270: f34a 5b3b bf82 73be 8ef0 a73d 6bbc c73d
00000280: 46df ca3d 77a8 8bbd ce18 253c 6f75 8ebc
00000290: bcde 873e 7cd6 a53e 7282 ac3e 70af 80bf
000002a0: 0c40 48bc a6a7 a1bc 813f 033d 0a1a 153e
000002b0: 689e 263e 7263 aabe bc5c 243e 1ccb 03be
000002c0: 7fd9 5a3c 00ec 9d3c 2cd6 7d3e bfb8 643e
000002d0: 1075 4b3e 00d1 8a3e edc3 f33a c08b 1e3c
000002e0: 531e dbbb efe7 4fbe 90da 15be df26 b13e
000002f0: 4e2d 59be a357 e9bd 72fc b33d 586c 6abc
00000300: 9a04 1e3f 9693 ce3e 3c06 0f3f c327 0d3f
00000310: 6422 0d3c 871e 45bb ce97 f3bc 8661 c7be
00000320: 1010 9e3e fa27 dfbe d4f7 ba3e 06f2 b13e
00000330: 6f04 7dbc 77e7 ae3b 8c37 f33e f74b d43e
00000340: 7a7b ea3e 2d31 f13e 0296 20bd 7d3b f43b
00000350: 6edd ae3c 1bb1 953e f0ba aa3e 8a52 d9be
00000360: 61e3 aebe 371e 1fbe ab7f ec39 f699 de3a
00000370: e13d b3be e2bc 8bbe 521d dabe fb97 0f3f
00000380: c4e3 e43b ce5c 96bb 96af b5bc 53ba a73d
00000390: 92a5 9e3d db76 bd3d a5fe bcbe 9e1e 073d
000003a0: f68a f73b 894d 5b3b 847e a73e c74d e2be
000003b0: f67b 0bbf 1ce2 db3e 6b17 6dbd db10 d3bb
000003c0: 4e72 9a3c 77f2 823e a40d 303e b43b 783e
000003d0: 0b5f f7be 6965 fe3c 561f 95bc 4f37 353c
000003e0: 5487 0fbf 0b22 dabe ae99 b63e 3257 e83e
000003f0: 0a15 743e c95c 59bd 314a 663c 771d e03e
-0.032730058 0.025131376 -0.022092266 0.26638815 -1.0015965 0.274686 0.35490972 -0.0003017252
-0.010942706 -0.002827535 -0.002654253 -0.0036513282 -0.002148801 -0.0010295078 -0.053473588 -0.20331576
0.0917876 0.05208166 -0.079105265 -0.013245868 -0.0044877776 -0.0022363844 0.0001876863 0.0014274748
-0.002268554 -0.00087486114 -4.515246e-05 -0.00061804696 -0.083336756 0.011578793 -0.009320152 0.37705627
0.27173272 0.3744587 0.39285776 -0.03555433 -0.017029628 -0.040879358 0.13489282 0.1832653
0.19865926 -0.4067112 -0.022700494 -0.028033115 -0.20696999 -0.007258735 -0.016652642 0.063104354
0.18029748 0.040901035 0.0007187683 0.024576807 0.32472876 0.3878108 -0.5241195 -0.3747953
0.006584873 -0.050962072 -0.018224875 0.17702056 -0.082385525 -0.22770749 -0.26208872 0.15333694
-0.06849565 0.37475348 -0.0058586756 0.039939784 0.019934691 0.04051844 -0.26637816 0.075367115
0.5038289 -0.015258826 -0.020780662 -0.0023856699 -0.23263319 0.12528256 -0.14369069 -0.10818136
-0.010787442 -0.08200397 -0.14838487 0.053086426 0.032461748 0.007708912 -0.004110589 -0.24962497
-0.15301377 0.4172745 -0.27260277 0.014942859 -0.07608402 -0.049351085 0.12726782 0.06563033
0.20589975 0.14704809 0.49818805 0.03800753 -0.039463855 -0.10091901 0.105339944 -0.056639045
-0.08353099 0.020828357 0.106217526 -0.06417713 0.08853777 0.07000625 0.12475535 0.042406693
0.03150179 -0.5769844 -0.057017 0.0350346 -0.207417 -0.017419113 -0.0065134177 0.056687903
0.0062001566 -0.00259387 -0.18919119 -0.14898247 0.36928508 -0.24858242 -0.04488339 -0.16351637
0.056459874 0.031845074 -0.047812473 -0.09820931 -0.065651 0.014561868 -0.029490814 0.038781084
-0.14428501 0.3111042 -0.15344091 -0.16333811 -0.19357757 -0.009206525 0.016362734 0.39024425
-0.4230839 0.421833 -0.71550554 0.035747495 -0.0001942522 -0.00731719 -0.85312146 0.26195335
0.22961773 0.27857408 0.03458217 -0.060171824 0.0033461421 -0.23780344 0.08200179 0.09752735
0.09905867 -0.068192415 0.010076715 -0.017389981 0.2653712 0.323902 0.33693272 -1.0053539
-0.012222301 -0.019733261 0.032042984 0.14560714 0.16271365 -0.33278996 0.16051 -0.12870449
0.013357519 0.019277573 0.24788731 0.223361 0.19868875 0.2711258 0.0018597819 0.009676874
-0.0066869645 -0.2030332 -0.14634156 0.3459997 -0.21208689 -0.113936685 0.087883845 -0.014308058
0.6172577 0.40346974 0.5586889 0.55138797 0.008614156 -0.003007801 -0.029735472 -0.38941592
0.3087163 -0.43585187 0.36517203 0.34754962 -0.015442952 0.0053376514 0.47503316 0.41464207
0.4579733 0.4710783 -0.03920556 0.0074533806 0.02134582 0.29236683 0.33345747 -0.42445785
-0.3415785 -0.1553887 0.00045108548 0.001698314 -0.35008147 -0.27292544 -0.42600495 0.5609128
0.0069851596 -0.0045887 -0.022178452 0.081898354 0.07746424 0.092511855 -0.36913028 0.032988183
0.007554407 0.0033462963 0.3271371 -0.44199964 -0.54486024 0.42945945 -0.05788366 -0.0064412183
0.018853333 0.2557561 0.17192703 0.24241525 -0.483147 0.031054216 -0.018203419 0.01106055
-0.5606587 -0.42604098 0.35664123 0.45379025 0.23836151 -0.053067002 0.014055775 0.4377248

0.bias f4 [128]
00000000: 2a70 c23d 87d0 48bc 6f20 f0bc 4a98 f4ba
00000010: 4636 4f3d b7f6 03be 3f13 87bd 6233 413e
00000020: 34cc 0b3e 199d debd 3d27 3f3e c606 093e
00000030: 8379 823e 9c3f a63d 5994 f23d ac5e 01be
00000040: e1a4 f13d 7453 5c3e dd98 02bd bc4f 283e
00000050: 29a1 a93e 00e6 a23d bedf 813d b5d9 923d
00000060: a4fe 243d 0a30 bd3d adaf 583e 6533 5ebe
00000070: 5191 183e 7da3 c2ba 2921 0f3e b4e4 f93e
00000080: 4391 e53d 8ed2 693e 96d1 3bbe fc9b 3b3e
00000090: 7416 a4b8 518e 053a e987 ab3e 7078 f33c
000000a0: e27c 19be 0cdc 113d b2aa f63d 5dd2 fd3d
000000b0: d3dc c03e c773 193b 2107 153e 11cd 79bd
000000c0: 8b3a d83e 80a3 ffbd 6191 c2be 8821 713e
000000d0: 3f56 0f3d 0f5d 5abe a391 ed3d b2dc 983c
000000e0: 9f9b 823e 149b 2c3e ba61 033e a757 93bc
000000f0: b5e3 dc3c d2bd 013e d086 8c3c 6632 3a3e
00000100: 82f3 873e 885d e83d 0948 633e c0e9 dc3b
00000110: 5a00 b7be a27b ff3c 112f 213d 8656 f43c
00000120: d901 a53e 5b24 4f3e e744 0f3e 04f0 1d3d
00000130: 0b2b c03d 978e 673e 5d4e 283e 0a74 18bb
00000140: 893f 863e 83ce 213d e83a eb3d 452c 253e
00000150: b7c0 c5be 40e7 d33c c237 1f3e 92f2 973c
00000160: e69b c5bd 33d7 883d 0e61 913e 1b57 7c3b
00000170: ba56 113e bf1c d43c 33ae 533e 5bdb d03d
00000180: 554c 4a3c 1c4c b03e 9ddf 2bbd 27a2 09be
00000190: 9ac9 8a3b 35b6 d2bc 4d2f 313e 0077 b1bc
000001a0: 8719 acbe 32ee 983d 1635 9c3d 54b3 1dbd
000001b0: 37f0 29b9 33d8 f73d 4884 59bd 8663 9e3d
000001c0: fadf d9ba 0353 433d 7200 943e c964 453e
000001d0: d077 bc3d f971 0f3e 443b 3e3e 6a78 5e3e
000001e0: 457c 633d 64d0 383e 8553 143e 6778 62bd
000001f0: bc3e f63d 10f3 523e 0bc5 f73d 1a93 6ebb
0.0949405 -0.012256748 -0.02931234 -0.0018661108 0.05058887 -0.12887083 -0.06595468 0.18867257
0.13652116 -0.10869808 0.18667312 0.1338149 0.2548333 0.08117601 0.11844701 -0.1263377
0.11799026 0.2151621 -0.031884063 0.16436666 0.33130768 0.07954025 0.063415036 0.071704306
0.040281907 0.09237678 0.21160765 -0.21699293 0.14899184 -0.0014849749 0.13977493 0.488073
0.11209347 0.22834226 -0.1834167 0.18321222 -7.8243116e-05 0.0005094754 0.3350213 0.029720515
-0.14989045 0.035610244 0.12044276 0.12393639 0.37668476 0.0023414956 0.145535 -0.060986582
0.42232165 -0.12482357 -0.3800154 0.23547947 0.03499436 -0.21324562 0.116000436 0.018659923
0.25509354 0.16856033 0.12830248 -0.017986132 0.026964048 0.12670067 0.017154127 0.18183288
0.2655297 0.11345965 0.22195448 0.0067417324 -0.35742456 0.031186882 0.039351527 0.029826414
0.32227972 0.20228712 0.13991128 0.038558975 0.0938321 0.22612987 0.16436143 -0.0023262524
0.26220348 0.039503586 0.11485845 0.16130169 -0.38623592 0.025867105 0.15548614 0.018548284
-0.09648876 0.06681671 0.2839436 0.0038504067 0.1419324 0.025892613 0.2067192 0.10198089
0.012347301 0.34433067 -0.0419613 -0.13440762 0.0042354586 -0.025721649 0.173032 -0.021663189
-0.33613226 0.07467307 0.07627313 -0.0385011 -0.00016206583 0.121017836 -0.05310467 0.07733826
-0.0016622536 0.047686588 0.2890659 0.19276728 0.0920254 0.14008321 0.18577296 0.21725622
0.055538435 0.18048245 0.14484985 -0.055290606 0.120236844 0.20600533 0.1209813 -0.0036403597

2.weight f4 [128, 128]
00000000: 0336 86be b45e 36bc 52b1 46be fe0d feb9
00000010: be0e 26bc c85d 0c3e 67c3 62be 6ab6 5c3c
00000020: 3b67 e6bc 2cbd 7f3e a308 c4bd 1aa1 06be
00000030: 28b2 0c3d ec59 c3bc 1bd4 9c3d c2b9 aa3d
00000040: 72a3 97be 9b5c 423d f12a b83c 72b1 693d
00000050: 044f 5c3d 6699 593d a5e8 143d 321f a63d
00000060: ff57 8abe 1718 8cbc 9bc2 553d a503 083c
00000070: bbbd 72bd fe35 0abd 6e6c 943c a756 923d
00000080: 3c08 413d 2553 58bd 8e4d 893e 319c 9abb
00000090: 57f5 54bd cd0d 74be 41dd d33b a01b 173c
000000a0: 79ff 5e3e d6aa 73bd 7826 723a 0b9e 633c
000000b0: d766 71bb d2c2 83bd d18f 133d 80e3 dd3c
000000c0: 864c f43d 194b 633e c509 fb3d abb1 923c
000000d0: 52e7 a53d 861d 853d f523 95bc 331a 5cbe
000000e0: 9b72 53be 32da 4abc d32b 13bd 3373 acbd
000000f0: 81d3 b839 b76e 133c 5fed fabd 3480 bf3c
00000100: 1937 d03b ca8c 23bc bb74 dbbc 7ca7 ad3b
00000110: f74f bd3d b606 babd d5b9 34bd 3712 f93c
00000120: fa6d c43c 45e5 313d c477 6cbb a2f1 cb3b
00000130: a010 afbc 9292 1b3d ca8f 68be 9c05 8fb9
00000140: 3fe8 f43c 1631 13be ecc2 0abc eae1 bc3c
00000150: c236 243e d26f ccbd 2b0f 973d 8c8c 55bd
00000160: 862f 2b3e 6edb bbbd ea43 313e 5f79 39bd
00000170: 2c08 6ebb 8888 7bbb 4ce5 9fbb a7dd a4bc
00000180: 705d 203d dc44 3f3b 57e9 dfbd c3a8 77be
00000190: 4dc4 3fbd 1451 b53d 35bb aa3c 505f a3bb
000001a0: 4348 983d e55a 823d dadb 5abd 2236 1abc
000001b0: a293 193f 0093 a7bd 4113 3cbd 7163 9ebc
000001c0: 5ef1 cc38 c695 993d 41a9 033e 1100 533c
000001d0: 4464 34bc 3363 d239 b9d5 02bd 2437 453e
000001e0: 8b24 9cbc fb02 7ebc 20a2 39be cbed 7dbc
000001f0: 6a8b 7ebc e93f ca3c bc51 083a fee1 083f
00000200: f3ea f33d f78b 99bc c6dd c9bc bdc1 5e39
00000210: 0551 d2bc 4c6a 993e 8a16 ae3b 7c9b d83d
00000220: b197 5ebe e6fe 20bd 14a5 81bd a4c7 4ebd
00000230: b227 133d a9ca f4ba 47c1 853e 7b03 ad3e
00000240: 3432 06be 0f69 4a3d 10a1 e33c a427 453d
00000250: c2ad ac3d 2eca a93d 1d39 8ebd c282 eb3d
00000260: 7177 92be a005 b8bd 35a5 ff3c 416a 053d
00000270: affb 1c3c 298d df3c b5a7 333d a3ee 19bd
00000280: c01e 02bd bbf0 e53c 07f3 063f 472f ca3d
00000290: 5ee8 873c 4682 1a3f 2782 073d 0c49 1c3d
000002a0: 6b03 f03e 1b31 47be 278a aa3d 60cf 6dbd
000002b0: 0da0 333d 2ab5 773c 32a7 e83c 383f 083d
000002c0: 535f a23d 1160 b53e b4a3 223e 1efb cdbd
000002d0: 4ce9 a0bd ecf7 0d3e 49a4 dcbd 597e 2e3e
000002e0: ef8a ebbd 815e 1f3e 9905 4e3d 003a 8d3d
000002f0: 5357 bf3b c416 b9bd 9a93 963e b822 b03c
00000300: 4460 f73d e492 603d 0292 6e3b 1c2d b6bc
00000310: 7f4c d23d 2852 21be 057e 79bc 0ffb fcbd
00000320: f230 473d 39d0 8c3d 5922 c33d 0ebb d9bd
00000330: 0615 0a3e a555 9a3d 89a8 14be c946 fc39
00000340: 8817 893c 449b e6bd 3c16 85bd 2634 9a3c
00000350: 185e 113e 3b49 69bc 4eb7 2a3d 5930 88bc
00000360: 7e8b 6a3e 6c1b 69bd dfea cf3d 03d1 7a3d
00000370: 1ca8 9f3d 41ec 10bd c6e4 1e3e 86e6 6bbd
00000380: f370 363e 5162 353d 62cc b1bc 36f4 29be
00000390: 3ef1 6d3b b921 b53e 4515 d9bd b984 1cbc
000003a0: 4b87 b13d 0673 04bd 55ad 053e a1f1 02bd
000003b0: 2696 ec3e 9cbb 1cbd 2fd5 77bd 581c 99bd
000003c0: 1941 e137 5610 b5bc d6db c53d 86d4 b2bc
000003d0: 47ff 50bd 0725 ef3d 41b7 993c 4a4e 3b3e
000003e0: ad75 4cbd 0b27 5e3e 2c91 84be 78f2 b3bd
000003f0: 7431 3a3d c176 253d 0e17 0d3d 7cb3 a03e
-0.26213083 -0.011130977 -0.1940358 -0.0004845708 -0.010135351 0.1370765 -0.22144853 0.013471225
-0.028125396 0.24974507 -0.0957196 -0.13147393 0.03434959 -0.023846589 0.076576434 0.08336212
-0.29616886 0.047451597 0.022481414 0.05705399 0.053786293 0.053124808 0.03635468 0.08111419
-0.2702026 -0.01710133 0.052187543 0.00830165 -0.059262972 -0.033742897 0.01811811 0.07145434
0.047126994 -0.052813668 0.26816982 -0.0047183265 -0.051991787 -0.2383339 0.0064655845 0.009222895
0.21777143 -0.059489094 0.00092372997 0.013892661 -0.003683498 -0.064336434 0.036025826 0.02708602
0.11928658 0.22196616 0.12257723 0.017906984 0.081007615 0.06499772 -0.018205622 -0.21494369
-0.20649187 -0.012381123 -0.035930466 -0.0842041 0.00035252798 0.008998564 -0.12252306 0.023376562
0.0063542244 -0.009982297 -0.02678906 0.0052995067 0.09243768 -0.09083311 -0.044122536 0.030404193
0.023978222 0.04343154 -0.0036082128 0.0062238732 -0.021370232 0.037981577 -0.22711101 -0.00027279265
0.0298959 -0.14374194 -0.008469325 0.023056943 0.16036513 -0.099822655 0.0737594 -0.05213599
0.16717348 -0.09172712 0.17311063 -0.045281764 -0.0036320789 -0.003838094 -0.0048796292 -0.020125223
0.03915161 0.002918533 -0.10933178 -0.24185471 -0.046818066 0.08853355 0.02084122 -0.0049857274
0.07435658 0.06364993 -0.053432323 -0.00941232 0.59990895 -0.08182335 -0.0459168 -0.019334527
9.772436e-05 0.0749927 0.12857534 0.012878434 -0.011010233 0.0004012823 -0.031942103 0.19259316
-0.019060394 -0.01550364 -0.18128252 -0.015498589 -0.015536169 0.024688678 0.00052001677 0.53469837
0.119100474 -0.018743498 -0.024641883 0.00021243743 -0.025673399 0.2996391 0.0053127455 0.10576531
-0.21737553 -0.03930559 -0.06330314 -0.05048336 0.03592653 -0.001867612 0.2612402 0.33791718
-0.13105088 0.049416598 0.027786762 0.048133507 0.08431579 0.08290516 -0.06944487 0.114995494
-0.28606752 -0.08985448 0.031206707 0.032572035 0.00958149 0.02728899 0.04386111 -0.037581097
-0.031767607 0.02806889 0.5271458 0.09872299 0.016590293 0.6035503 0.033083107 0.0381556
0.46877608 -0.19452326 0.08327132 -0.058059096 0.04385381 0.0151188765 0.028400037 0.033263415
0.07928338 0.35424855 0.1588276 -0.100576624 -0.07856998 0.13864106 -0.107735224 0.17040385
-0.11501109 0.15563394 0.050298307 0.06895828 0.0058392673 -0.09037545 0.29409486 0.02150093
0.12078908 0.054827586 0.0036402945 -0.022238307 0.10268497 -0.15753996 -0.015227799 -0.12352573
0.048630662 0.06875653 0.09528036 -0.10631381 0.13484582 0.07535867 -0.14517416 0.00048117925
0.016734853 -0.11260083 -0.064983815 0.018823694 0.1419605 -0.014238651 0.04167872 -0.016624616
0.22904775 -0.056910917 0.1015222 0.061234485 0.07795736 -0.03538156 0.15516958 -0.05759289
0.17816524 0.044283215 -0.021703903 -0.16597065 0.0036307122 0.3537729 -0.1059976 -0.009553128
0.08668383 -0.032336257 0.13054402 -0.031968717 0.46208304 -0.038264856 -0.060506042 -0.07476109
2.6852404e-05 -0.022102516 0.09661071 -0.021829855 -0.0510247 0.11676984 0.01876414 0.18291584
-0.049916912 0.21694581 -0.25892007 -0.087864816 0.04545732 0.040396456 0.034445815 0.31386936

2.bias f4 [128]
00000000: c157 203c 4567 afbd 25ff e7bc b45d 6ebd
00000010: 521e 81bc 96b4 f5bb f167 01bd fd15 8fbb
00000020: 4fe4 fdbc ed68 aabc 5104 2e3b 4893 83bc
00000030: 4811 cabc 8f9b db3d f131 a63c 03a9 e6ba
00000040: 4423 20ba 6350 01be b037 b9bd 85be acba
00000050: c500 afbd f967 b8bb bd59 09bb 98db 91bc
00000060: 4c5f 58bc af67 89bb 9706 00bc 3459 e0bd
00000070: 6d0d 95bb 8a22 b7bb 8a9e 1cbe 93c4 b8bd
00000080: 2cdf 9abc f6f5 67bd 5df4 6a3e decd e9bd
00000090: e263 063e ae20 b7bd 5ea5 05be 8b81 cfbb
000000a0: 1683 0aba aeb6 e6bd 11b1 f6bb 602b 39bc
000000b0: 0cdb 313b e5ed e9bd eaf1 bebc 976d f63b
000000c0: 9aee 3bbe 8dd7 9bbc 44a9 b1bb 1f58 0fbe
000000d0: 99cb c3b9 3658 abbc d3fa 2a3e 01c5 1cbc
000000e0: d3d8 a93b a9eb a4bb 3d70 9ebc 19ff 9fb9
000000f0: b4b9 a5bd bbaf b53a 2eaf 983e d00a eeba
00000100: 4fc5 13bc 5db0 ac3c f537 55bd 2f6f 8d3d
00000110: 01d6 39bd 3c0a 083d d8ae e4bb f3b6 76bc
00000120: 28e8 50be f9b9 45bd b3b2 01bd 9684 41bb
00000130: 8a8f c53d 85c7 cfbc c23a 9b3b 6326 9dbd
00000140: ff24 88bd 72ef 60bb 3d5c 3a3d 852a 90bc
00000150: adc8 62be e3dc 06bc 6eed 06be dca4 1abb
00000160: 590d bfbd f9a9 a73a a7c9 9dbd 7afe 053b
00000170: a3ce 003e d348 4dbd 4aea 813c 3592 02bd
00000180: 26af 90bd beb3 96bd c9c0 1dba 3f29 90bd
00000190: 95f6 3dbe b9e9 bb3d 1233 9cb8 61ca b6bc
000001a0: 2228 9cbd 06d6 efbc 7510 b9bb 8953 d736
000001b0: de30 a1bd acbf 8cbd 4ecb 4dbe 4fcf f5bc
000001c0: 8023 22bd 2f35 e0bb 4173 af3c b251 16be
000001d0: 9eb2 70bc 3f89 3cbb 5651 f8bd 8523 c9b9
000001e0: 720c a93d e42f 37be 8691 13bc 9fc7 f5bb
000001f0: 5d4f 163d 6c04 22bc 7507 0dbb 8dc7 95bb
0.009786547 -0.08564619 -0.028319905 -0.05819483 -0.015761528 -0.007498334 -0.031593267 -0.004366635
-0.030992655 -0.020801986 0.0026552866 -0.01606144 -0.024666443 0.1072303 0.020287486 -0.0017597977
-0.00061087706 -0.12628321 -0.09043825 -0.0013179338 -0.08545069 -0.005627629 -0.002095803 -0.017804906
-0.013206314 -0.0041932683 -0.007814071 -0.10954514 -0.0045487196 -0.005588834 -0.15294853 -0.090218686
-0.018905245 -0.05663105 0.2294478 -0.11416219 0.1312404 -0.0894178 -0.13051364 -0.0063325814
-0.00052838156 -0.11265312 -0.007528432 -0.011301845 0.0027138619 -0.11422328 -0.023308713 0.0075203883
-0.18352738 -0.019023681 -0.0054217894 -0.1399846 -0.0003734499 -0.020916086 0.16697244 -0.009568454
0.005183318 -0.0050329757 -0.019340629 -0.00030516906 -0.08092061 0.0013861576 0.29821151 -0.0018161181
-0.00901921 0.02108019 -0.052055318 0.06905972 -0.045370106 0.033212885 -0.006978851 -0.015058267
-0.2040106 -0.04827306 -0.03166456 -0.002952849 0.096465185 -0.025363693 0.004737229 -0.07673337
-0.066476814 -0.0034322408 0.04549812 -0.0175984 -0.22146864 -0.008231374 -0.1317651 -0.00235968
-0.09328718 0.0012791745 -0.07704478 0.002044587 0.12578826 -0.05011828 0.015858788 -0.031877715
-0.07064657 -0.07358502 -0.0006017802 -0.07039117 -0.18551095 0.091754384 -7.448172e-05 -0.022313299
-0.07624842 -0.029276859 -0.005647714 6.417224e-06 -0.07870649 -0.06872496 -0.20097086 -0.030006079
-0.039584637 -0.0068422775 0.021417262 -0.14679602 -0.014691023 -0.0028768328 -0.121248886 -0.00038364172
0.08254327 -0.17889363 -0.009006863 -0.0075006033 0.03669678 -0.00988875 -0.0021519337 -0.0045709074

4.weight f4 [6, 128]
00000000: 633c 2c3e 66ee 533e b558 823e 82e8 c23e
00000010: ef67 ac3e 1015 f73d a5a2 233e 779c c23d
00000020: 02a7 8f3e f676 d23d 826d 6c3d c5c4 173e
00000030: 8df0 443e 16b6 2dbe 6ed2 c6bc 962c a53d
00000040: ebcf fb39 60ae 023e 9fc5 273e 2f00 0ebb
00000050: abf0 1e3e be01 b73d 919d c93d 8eee 363e
00000060: 64bf 273e a0db 533e aebb fb3d ec45 823e
00000070: 63f0 d23d 92c8 103e 2a17 b5bf 7209 1a3e
00000080: 184c 893e 1088 f63d 48ae 02be fc03 033e
00000090: 6229 bebd 61bb 3a3e 1a03 533e 32ae 0b3e
000000a0: 186b a339 63b6 ee3d 5b8c 503e 2ccc 6f3d
000000b0: a4d1 813c 76db cabf 2232 3a3e 572f bd3d
000000c0: 27bb a63e 8cd8 1a3e 4fff eb3d 8898 3f3e
000000d0: a6ee e2b9 820d 3e3e 632b ecbe df44 b03e
000000e0: 595a 333e cbcf cc3d 4f86 9b3e 49c7 2d3a
000000f0: 3093 353e 0348 7b3d eebf aebe 0534 973d
00000100: c463 e33e 82f7 423e 0521 583e 0470 cfbd
00000110: de88 ac3d df19 86bf 8247 d43d a62c 7d3e
00000120: 3028 6d3e 53a9 123e 22cb 943d a4ad 103e
00000130: b604 74be d716 863e 6021 bf3d 059c c53d
00000140: d7e8 1e3e 7132 b83d 7c03 5abe 3243 3c3e
00000150: 4d84 aa3e 28a4 2d3e 859d bebf fb97 4f3e
00000160: 0e2a 7ebe ba6d b43d 7fd7 3b3e 7bda 333e
00000170: 4261 febd caac 053e 9c70 a03c 337c d63e
00000180: 9ec4 203e 89b8 813d 80f1 d4b9 6f1d 2e3e
00000190: ed4e 4f3e cd5d b6bd 1012 4339 2b79 803d
000001a0: b61d 1c3e c447 54be 2302 1dbd 5c53 003a
000001b0: 30f8 953d 7893 b03e d13f 773e 1b8a e03d
000001c0: 31ed f83d ea7d f83d deb0 bbbd 96ef b93e
000001d0: 6b8c 0f3e 5dd7 0f3e 38c2 2b3e 53f6 113a
000001e0: b565 9dbd 0aee b73e 329b f03d b355 dd3d
000001f0: 27e1 59be 3473 793e d416 59bb 31f4 293e
00000200: dcc2 323e f6e6 253e 9ecb 7b3e 4205 a93e
00000210: caf7 933e cbba 183e 5371 333e 51b0 1e3e
00000220: 6755 883e 5407 ba3e e32a 2c3e dcbc ff3d
00000230: ac59 433e c6c9 0cbe c4e1 363e dc8e 003e
00000240: a85f f039 cab7 263e eb43 153e 51f8 aeb6
00000250: b788 0d3e 5d5a c93d 3eef 0a3e 12f9 493e
00000260: ac11 133e de6c 133e 28be 283e 786c d63e
00000270: aaec f93d 1542 443d f02d b6bf 0802 173e
00000280: fda5 8a3e 9abb 003e bee3 debd 1ff8 4c3e
00000290: 936f cebd b4b2 243e f599 1d3e 2642 303e
000002a0: fe96 8839 0ff3 0e3e a66e 5b3e 6018 473e
000002b0: 129d 223e 0ced c8bf 659d 273e d4f0 2e3e
000002c0: 313b 9a3e e2ae 5b3e 5e20 003e 26b1 2d3e
000002d0: 5549 3fb8 af89 423e 01dd d9be e198 5d3e
000002e0: 93a4 573e b4bc ef3d 5243 933e 9d81 6d39
000002f0: 5701 553e 62dc c33d f1b6 b4be 3369 06bd
00000300: d26e e13d d51c 31be 6354 1f3e 35f8 e6bd
00000310: cc7a ee3d 9a19 8abf 1854 f63d 8f6d 643e
00000320: eefc d13e 903e 513d f003 a83d df66 7b3e
00000330: c4cb 79be 9638 763e cce3 2a3e 370a e63d
00000340: 3a73 143e b508 953d 640f 5bbe 26f9 253e
00000350: 0ce8 ba3e 0982 2f3e aa21 babf 9297 753e
00000360: 1988 63be 2460 fa3d bae1 1e3e 62f1 143e
00000370: cbff f9bd ecf4 0f3e 8300 82be da4c a23e
00000380: 6282 0f3e d2ae 9b3d 9dd1 b9b9 236b 513e
00000390: 31db 3d3e bfec afbd 6141 19ba 9f04 a93d
000003a0: 2490 ee3d 2dd4 84be 84fe 113e 541a 0a3a
000003b0: f887 ad3d c754 533e 622e 523e 237a 043e
000003c0: 0473 0f3e 8868 203e 694f 65be 63f0 e93e
000003d0: dd96 363e 8747 043e 85f1 1b3e f572 9f39
000003e0: 30a5 97bd 2139 b83e 53a0 f83d 5a8e 873e
000003f0: 69b0 6bbe 987c 473e 4fc6 92bb 3ab8 283e
0.1681991 0.2069641 0.25458303 0.38068014 0.33673045 0.12064564 0.15980013 0.095024996
0.28057104 0.10276596 0.057721622 0.14821155 0.19232388 -0.16963992 -0.024270263 0.08065145
0.00048029362 0.12761831 0.1638398 -0.002166759 0.15521495 0.08935879 0.098445065 0.17864439
0.16381603 0.20689249 0.122916564 0.2544397 0.102997564 0.14139012 -1.4147694 0.15042666
0.26815867 0.120376706 -0.12761796 0.12794489 -0.09285237 0.18235542 0.20606652 0.13640669
0.00031169574 0.11655881 0.20366041 0.058544323 0.015847035 -1.5848224 0.18183187 0.09237545
0.3256466 0.15121669 0.115233056 0.1871053 -0.00043283886 0.1855984 -0.4612685 0.34427544
0.17514934 0.10000571 0.30375907 0.0006629122 0.17731929 0.061347973 -0.34130806 0.07382969
0.44412053 0.19039729 0.21106346 -0.10128787 0.08424543 -1.0476645 0.103652015 0.24724063
0.23159862 0.14322405 0.07265307 0.14128739 -0.23829922 0.261893 0.09332538 0.09648899
0.15518509 0.08993996 -0.21290392 0.18385008 0.33304062 0.16957152 -1.4891821 0.2027282
-0.2482073 0.08809991 0.18343924 0.17563812 -0.12420894 0.13054195 0.019584946 0.4189163
0.15700004 0.063340254 -0.00040615723 0.17003416 0.20244952 -0.0890461 0.00018603378 0.06273111
0.15245709 -0.20730501 -0.038332116 0.0004895234 0.07322729 0.3448751 0.24145438 0.109638415
0.12154616 0.12133391 -0.09164594 0.36315602 0.14018409 0.14046998 0.16773307 0.0005568016
-0.07685415 0.35923797 0.11748351 0.108073615 -0.21277295 0.24360353 -0.003312518 0.16597058
0.17457145 0.16201386 0.24589393 0.33011824 0.28899986 0.14915006 0.17523699 0.15496947
0.26627657 0.36333716 0.16813235 0.12487194 0.19077176 -0.13748845 0.1785956 0.12554497
0.00045847637 0.16281047 0.1457669 -5.214512e-06 0.13821684 0.098316886 0.13567826 0.19723919
0.1436221 0.14396998 0.16478789 0.4187963 0.12203343 0.047914583 -1.4232769 0.14746869
0.27079764 0.12571564 -0.10883282 0.20016526 -0.10079875 0.16083795 0.15390761 0.17212734
0.0002605244 0.13959907 0.21428928 0.19442892 0.1588023 -1.5697341 0.16368635 0.17084056
0.30123284 0.21453431 0.12512347 0.16962108 -4.5606244e-05 0.18997835 -0.42551425 0.2164035
0.21058874 0.11705914 0.287623 0.00022650366 0.20801292 0.09563519 -0.35295823 -0.03281517
0.110074654 -0.17296155 0.15559535 -0.112778105 0.116445154 -1.0789063 0.12027758 0.22307418
0.41013283 0.051085055 0.08203876 0.24550961 -0.24394137 0.24045023 0.1668846 0.11232417
0.1449708 0.07277051 -0.2139259 0.16208324 0.36505163 0.17139448 -1.4541523 0.239836
-0.22219886 0.122253686 0.15515795 0.14545205 -0.12206992 0.14058274 -0.25391015 0.31699258
0.14014581 0.07601704 -0.00035442124 0.20451026 0.18540646 -0.085900776 -0.0005846229 0.082528345
0.116485864 -0.25943127 0.14257246 0.00052682054 0.084731996 0.20637809 0.20525506 0.12937216
0.14008719 0.15664876 -0.22393574 0.45691213 0.17830987 0.1291791 0.15228851 0.00030412493
-0.07404554 0.35981086 0.121399544 0.26475793 -0.23016514 0.19481122 -0.0044792066 0.16476527

4.bias f4 [6]
00000000: 2ade 2cbc dbd2 55bc 48f6 91bc e57b 4fbc
00000010: d161 8bbc c63b 71bc
-0.010551015 -0.01305076 -0.017817631 -0.012663816 -0.017014416 -0.014723724
