taxi-dqn-agent-2.pt (torch, 75528 bytes, 6 tensors)

0.weight f4 [128, 7]
0.05409385 0.011393569 0.0045323395 -0.39303523 0.27652556 0.27452174 -0.34890792 0.034210127
-0.005387638 0.020528913 -0.27840218 -0.3250251 0.45779946 -0.22301644 0.5531728 -0.0041025872
0.052530885 0.42189333 0.45656425 0.39154586 0.395463 -0.06777419 -0.015409196 -0.022942234
0.26286253 0.3306822 0.2783329 0.22673573 0.02069602 -0.0045822514 0.009994211 -0.15598242
0.12753676 -0.17069806 0.12080197 -0.056544565 0.024776066 -0.049186934 0.29718202 0.2954778
0.2935583 0.2956227 -0.039936583 -0.009180407 -0.0068175546 0.22949147 0.24429923 0.23851193
0.21583027 -0.03862982 -0.0037516884 0.015794376 -0.39391908 0.27815866 -0.39690164 0.2853295
-0.09136535 -0.013485703 -0.027295165 0.36451894 0.49012935 0.3958194 0.36609226 -0.0537689
-0.002457689 0.026458707 0.22920936 -0.35347024 -0.30420533 0.23086008 -0.00089598465 -0.007165344
-0.0024800932 0.0523554 -0.17813727 0.05284564 0.06114306 0.06847751 0.0057636625 0.016837565
-0.6773019 0.4264119 0.42470554 -0.58262336 -0.110797785 -0.00029511141 -0.0021696074 0.30376282
0.28323212 -0.59027356 -0.42336485 0.07382539 0.012945402 -0.008980872 0.0953467 0.112869404
0.09767911 0.09062551 0.513768 -0.037192583 0.0045189476 0.43087098 0.45715213 0.39320475
0.4025575 0.39333698 0.047926992 0.110961735 0.3070098 0.29994047 0.27365786 0.24646753
0.10629902 -0.10067853 -0.07996228 0.020547573 0.001315045 0.04011648 0.0069982572 -0.03494622
0.0005375805 0.0018642838 0.11139084 -0.35704628 0.10510387 0.10733804 0.027129153 0.006024133
-0.04103252 0.326282 0.4817768 0.3651697 0.35235718 0.053579655 0.0012462349 0.014220279
-0.27754802 0.22084646 0.21127118 -0.32022324 0.055994898 -0.0036724852 0.0028101292 -0.23038884
0.36879316 -0.22280858 -0.21829894 -0.27456635 -0.053419292 -0.07077546 0.45871913 0.4187607
0.47652426 0.45386937 -0.018978741 0.009985488 -0.04021403 0.19290699 0.24848174 0.2249757
0.17864312 0.021895217 0.0074189906 0.011062475 -0.5551238 -0.55759597 0.36716643 0.39068708
0.04824406 -0.005890373 0.01831573 -0.248279 -0.30602342 0.423728 -0.23356748 0.05683403
-0.00195417 0.027997993 0.17047998 -0.23460698 -0.22814113 0.16197981 0.30677247 -0.12029073
-0.068727836 0.2541822 0.43432155 0.330043 0.28551817 -0.028345602 0.0051133833 0.0076247924
-0.24889247 0.20055495 0.20732804 -0.2819799 0.03439732 0.004266962 0.01821106 0.22640556
-0.17946519 -0.13391264 -0.10508869 0.047249023 0.033411626 -0.051352877 0.24376157 0.26616284
0.2490838 -0.9499751 -0.058856208 0.0072720908 -0.02575203 0.37730712 -0.57500994 0.345588
-0.45288837 -0.009065053 0.16350153 0.017719982 0.0847132 0.070027314 0.07421326 0.06107958
-0.09196236 0.014273625 -0.012934285 0.3712551 0.41376054 0.32883704 0.32763842 -0.0050091613
-0.0614479 0.14759293 0.3934101 0.41994834 0.3013176 0.41273835 -0.00331643 1.1164851
0.075315684 -0.0025302558 0.002064951 0.00034952295 0.0019258179 -0.042023987 0.09186895 0.07699437
0.026207056 0.018052906 -0.011368981 -0.0049846973 0.30985627 -0.003485779 0.006779951 0.19158311
00000000: 8391 5d3d 18ac 3a3c 0584 943b ea3b c9be
00000010: c294 8d3e 1d8e 8c3e 0fa4 b2be eb1f 0c3d
00000020: c98a b0bb 402c a83c bb8a 8ebe b169 a6be
00000030: b164 ea3e 6c5e 64be bc9c 0d3f ff6e 86bb
00000040: a02a 573d 6702 d83e cac2 e93e b378 c83e
00000050: 207a ca3e 32cd 8abd da76 7cbc 5af1 bbbc
00000060: eb95 863e 2d4f a93e a681 8e3e 692d 683e
00000070: b38a a93c b626 96bb c2be 233c dbb9 1fbe
00000080: ff98 023e 79cb 2ebe 0667 f73d 469b 67bd
00000090: 2df7 ca3c 3d78 49bd 3e28 983e de48 973e
000000a0: 464d 963e dc5b 973e 8b94 23bd 6b69 16bc
000000b0: cb65 dfbb d0ff 6a3e 9429 7a3e 793c 743e
000000c0: 9c02 5d3e 4d3a 1ebd e3de 75bb 3563 813c
000000d0: c3af c9be d06a 8e3e b136 cbbe b516 923e
000000e0: c21d bbbd 23f3 5cbc 1c9a dfbc 3aa2 ba3e
000000f0: 3cf2 fa3e d7a8 ca3e 7270 bb3e c73c 5cbd
00000100: 2e11 21bb eebf d83c dcb5 6a3e 0dfa b4be
00000110: cdc0 9bbe 9666 6c3e 83e0 6aba 43cb eabb
00000120: 0f89 22bb 9e72 563d 9e69 36be ab74 583d
00000130: 2571 7a3d f03d 8c3d 1bdd bc3b efee 893c
00000140: a863 2dbf a952 da3e 0173 d93e ce26 15bf
00000150: f3e9 e2bd 2fb9 9ab9 f92f 0ebb cd86 9b3e
00000160: cd03 913e 2b1c 17bf 47c3 d8be c431 973d
00000170: f418 543c 8224 13bc 2145 c33d 1328 e73d
00000180: fc0b c83d de99 b93d 4d86 033f 4057 18bd
00000190: ae13 943b 1f9b dc3e d80f ea3e 2252 c93e
000001a0: 041c ce3e 7763 c93e 184f 443d e83f e33d
000001b0: 6330 9d3e cc91 993e e21c 8c3e fc61 7c3e
000001c0: 4db3 d93d 8c30 cebd 44c3 a3bd 6253 a83c
000001d0: 975d ac3a 2e51 243d a351 e53b c523 0fbd
000001e0: 6bec 0c3a fc5a f43a e120 e43d c5ce b6be
000001f0: b340 d73d 0cd4 db3d f53d de3c 1766 c53b
00000200: b711 28bd 6f0e a73e 73ab f63e 86f7 ba3e
00000210: 2968 b43e 5776 5b3d b458 a33a 2cfc 683c
00000220: c61a 8ebe 9325 623e 7957 583e 4df4 a3be
00000230: e85a 653d 14ae 70bb 252a 383b 0deb 6bbe
00000240: 75d2 bc3e ef27 64be c289 5fbe f693 8cbe
00000250: 30ce 5abd b9f2 90bd 3cdd ea3e cd67 d63e
00000260: fdfa f33e 9161 e83e 4e79 9bbc 2c9a 233c
00000270: 77b7 24bd 6989 453e ff71 7e3e 0860 663e
00000280: 39ee 363e 995d b33c 011b f33b 623f 353c
00000290: 981c 0ebf 9cbe 0ebf 3dfd bb3e 2308 c83e
000002a0: 909b 453d 0804 c1bb df0a 963c da3c 7ebe
000002b0: 1aaf 9cbe e0f2 d83e 502c 6fbe cdca 683d
000002c0: 8811 00bb 0c5c e53c 4e92 2e3e d03c 70be
000002d0: d49d 69be 09de 253e 4811 9d3e fc5a f6bd
000002e0: 2ec1 8cbd 2b24 823e 655f de3e 65fb a83e
000002f0: 702f 923e 0935 e8bc 2b8e a73b 65d9 f93b
00000300: abdd 7ebe 475e 4d3e cd4d 543e ab5f 90be
00000310: 34e4 0c3d dfd1 8b3b 5c2f 953c dcd6 673e
00000320: b9c5 37be 6520 09be bd38 d7bd 3188 413d
00000330: a1da 083d 6557 52bd a29c 793e 7f46 883e
00000340: d30f 7f3e 9131 73bf 3513 71bd b84a ee3b
00000350: ecf5 d2bc 662e c13e da33 13bf e9f0 b03e
00000360: fce0 e7be 9785 14bc f26c 273e 7f29 913c
00000370: 1d7e ad3d 7b6a 8f3d 1ffd 973d 952e 7a3d
00000380: c356 bcbd ecdb 693c 53ea 53bc 2615 be3e
00000390: 6cd8 d33e 545d a83e 39c0 a73e e423 a4bb
000003a0: cbb0 7bbd 9a22 173e 0c6d c93e 7803 d73e
000003b0: 4d46 9a3e 7152 d33e 7658 59bb fce8 8e3f
000003c0: 1c3f 9a3d a6d2 25bb 2154 073b 2d40 b739
000003d0: ba6b fc3a 5821 2cbd ca25 bc3d 39af 9d3d
000003e0: 2eb0 d63c b0e3 933c f644 3abc ac56 a3bb
000003f0: 7ba5 9e3e ab71 64bb 5a2a de3b 5d2e 443e

0.bias f4 [128]
0.19457999 0.36759016 -0.106405675 -0.02036194 0.078192 0.04042159 -0.17671822 0.22635962
-0.21025121 0.19344002 0.008974653 0.41366073 0.42713383 -0.005301708 -0.12385296 -0.15239604
-0.013598595 0.034766927 -0.11999855 0.16626288 0.30246246 -0.23872237 -0.04223268 0.35587323
0.36359438 0.123975225 -0.09948871 0.1262556 0.1906885 0.19852476 0.307545 0.053133477
-0.1468949 -0.30066872 -0.002438214 -0.16120857 -0.06802417 0.1242916 -0.01971197 0.0029097481
0.07575962 -0.051411737 -0.01772128 0.18489109 0.029358469 -0.0021906083 -0.20943831 0.07903416
0.016100515 -0.020998493 0.3318968 0.10977226 -0.014607575 0.068591036 0.104123816 -0.0016732429
-0.10526347 0.27269337 0.015035526 -0.04738717 0.11007638 -0.12280659 0.15767679 -0.12392192
0.34654853 -0.086495295 -0.09772348 -0.07945405 -0.08926619 0.033410817 0.3046684 0.27053067
0.08271962 -0.16573977 0.15110236 0.070424505 0.38110074 -0.02450185 0.2725932 0.3906018
0.23140548 -0.2527196 -0.086619645 0.46569815 0.2908315 -0.20693865 -0.042858135 -0.025264407
0.060389616 -0.039936755 0.15025519 0.27352297 0.11887854 0.37762332 0.45582488 -0.22575234
-0.24643876 0.31835854 0.27686295 0.07350916 -0.14944735 -0.1267858 0.24684685 0.46280685
0.13016695 0.19827157 0.36058524 0.14476013 -0.11129629 0.22578545 0.08787381 0.43111005
-0.13200977 0.098224275 0.016774835 0.49305925 -0.102078974 -0.12140886 0.27872208 -0.05316829
-0.00942605 0.17330065 0.28280783 -0.047727216 -0.21133861 0.30907196 0.17699116 0.29095617
00000000: fa3f 473e c734 bc3e 38eb d9bd 15ce a6bc
00000010: 2123 a03d 1c91 253d 9ff5 34be d1ca 673e
00000020: 184c 57be 2415 463e 6c0a 133c 57cb d33e
00000030: 49b1 da3e f3b9 adbb 9fa6 fdbd b50d 1cbe
00000040: a4cc 5ebc c467 0e3d cdc1 f5bd d140 2a3e
00000050: 5cdc 9a3e a373 74be 2dfc 2cbd 0435 b63e
00000060: 0b29 ba3e b9e6 fd3d bdc0 cbbd 2649 013e
00000070: d943 433e 134a 4b3e 8a76 9d3e 7da2 593d
00000080: 9e6b 16be 40f1 99be 71ca 1fbb dc13 25be
00000090: 4250 8bbd 988c fe3d ff7a a1bc 79b1 3e3b
000000a0: dc27 9b3d 1d95 52bd 382c 91bc 1754 3d3e
000000b0: 2c81 f03c 4f90 0fbb ff76 56be a9dc a13d
000000c0: 3ae5 833c 0805 acbc 61ee a93e 47d0 e03d
000000d0: 9c54 6fbc 7579 8c3d de3e d53d b750 dbba
000000e0: 6094 d7bd 779e 8b3e 9157 763c 0d19 42bd
000000f0: ba6f e13d 0582 fbbd 0676 213e c7ca fdbd
00000100: cf6e b13e 7224 b1bd 3f23 c8bd ceb8 a2bd
00000110: 31d1 b6bd c8d9 083d 7ffd 9b3e ff82 8a3e
00000120: e768 a93d b0b7 29be 94ba 1a3e b93a 903d
00000130: a31f c33e 1bb8 c8bc 5691 8b3e f6fc c73e
00000140: 8ff5 6c3e 7764 81be a465 b1bd fd6f ee3e
00000150: dee7 943e bae7 53be 038c 2fbd 4df7 cebc
00000160: 1a5b 773d b994 23bd 7fdc 193e 340b 8c3e
00000170: 9876 f33d d857 c13e e161 e93e 9f2b 67be
00000180: 715a 7cbe e4ff a23e fbc0 8d3e f88b 963d
00000190: ba08 19be 23d4 01be 6cc5 7c3e 05f5 ec3e
000001a0: 7c4a 053e b407 4b3e a19e b83e 003c 143e
000001b0: 4fef e3bd 4d34 673e 2ff7 b33d 75ba dc3e
000001c0: 922d 07be cf29 c93d 616b 893c 4372 fc3e
000001d0: c80e d1bd 35a5 f8bd a9b4 8e3e fec6 59bd
000001e0: b86f 1abc ba75 313e 30cc 903e 9d7d 43bd
000001f0: 2669 58be ae3e 9e3e 2c3d 353e 35f8 943e

2.weight f4 [128, 128]
-0.0030037882 -0.0032691674 -0.00068824313 -0.0041244715 -0.00034922536 -0.0010941973 -0.001460654 0.001681194
-0.0028996048 -0.0011690075 0.00047957388 0.00093054975 0.0017565743 -0.00064104324 -0.0016454956 -0.0024452743
0.0037143887 -0.0010120847 -1.1136425e-06 -0.0013109032 -0.0026295858 -0.0010220913 -0.0029898684 0.0009128802
-0.0028807705 0.0016726096 -3.2839926e-05 -0.0022433805 -0.0017341385 -0.008445927 -0.0075624036 -0.0007824594
0.0014289013 -0.00053118565 -0.01487854 -0.0006815426 -0.0022377698 -0.0014702205 -0.003921071 0.0006268095
1.6733586e-05 -0.0018408435 -0.002120554 0.0003732046 -0.00070001656 -0.00048086286 -0.0038934785 0.001317494
-0.0004777188 -0.0028486869 -0.00016480136 -0.0010149742 -0.002138725 -0.0039400086 0.0030131722 -1.7370854e-05
-0.00063434703 -0.0025711777 -7.0570713e-06 -0.0010163005 0.00012147157 -0.0029203456 -0.00019398672 -0.0010140425
-0.0029245547 0.0027146377 -0.0021971324 -0.0019964122 0.00065537303 -0.0031300858 -0.0011883365 -0.002438005
-0.003974893 -0.0030651635 -0.0036335287 -0.00062275433 -0.005303301 -0.0021056721 0.0012018243 -0.0011699836
-0.0018690805 -0.0017289852 -0.0017970008 0.0008018314 -6.148195e-05 -0.0046359706 -0.005080178 -0.00061513175
-0.0024967955 -0.0027599372 0.00132165 -0.0044922493 -0.004142681 -0.00077612285 0.00043707745 -0.0016467515
-0.001617677 -0.001725402 0.0018913137 -0.00057022396 -4.2724056e-05 1.0736239e-06 -0.0026319176 0.0010372916
-0.00019446819 0.00042546808 0.004719098 -0.0010530134 0.0041497773 -0.0040698424 -0.0019479771 -0.0024909792
-0.0010126065 0.0006169741 -0.0016094996 -0.000623394 -0.0018856329 -0.0046211057 -4.5801127e-05 -0.0037132346
-0.0020890255 0.0036047183 -0.0023997405 -0.0037811145 0.0031445175 -0.0020008334 0.0022714818 0.000801988
0.04158144 0.0065772235 -0.0006659374 0.0006929779 0.029809793 -0.00161038 0.005522191 0.009906163
0.0006325252 0.011399954 -0.0017600833 0.016021531 0.03281916 4.8585673e-05 -0.00087950926 0.0047678864
-0.021238111 -0.008702327 0.0021147276 0.008612806 0.017839238 0.000896025 0.001204442 0.0025309871
0.009137612 0.011705816 0.00271853 0.012930008 0.012044503 0.09011958 0.050176248 0.001641466
0.007484436 0.010292028 0.06960805 -0.06199465 2.6468311e-05 0.02346604 -0.00085318513 0.11382449
-0.0124786785 0.003912145 -0.0011509944 0.008313698 -0.0027802456 0.0003225686 0.00654365 -0.021420892
0.0002414084 -0.008568102 0.04900829 0.0057794144 -0.0067495937 0.006656198 0.055704754 -0.00054381206
-1.9132753e-05 0.009557971 -0.0006719397 0.0007525613 -0.013836125 0.013144992 0.013367449 0.001601551
-0.12401491 0.0008464396 0.00031619507 0.04981676 0.0006312226 0.053459294 0.0069723567 0.010529378
0.0029383565 0.007120429 0.017968487 -0.00867506 0.0037132404 -5.9106846e-05 0.014380682 0.030250762
0.00881258 0.010969151 -0.00014561883 0.0037655493 0.009846646 -0.012068626 0.044426 0.0009080458
0.00016390192 6.5331864e-05 0.00913246 -0.0019046265 0.016429316 -0.00085545273 0.011692578 0.016770214
0.0016038956 -0.013539478 0.010100176 0.003118055 0.0065146023 0.01769112 0.00097252475 0.0070842654
-0.0745942 0.031923387 0.03734723 0.0042897416 -0.04644614 -0.010672474 0.0052581825 0.017065728
0.0016500056 0.009012918 0.0049910713 0.0032194406 0.00029186494 0.009594422 0.01784674 0.00058907503
0.00040270088 -0.004095516 0.006192527 0.00089854345 -0.15698335 0.092097506 9.429684e-05 0.04449325
00000000: 34db 44bb 873f 56bb 376b 34ba 9326 87bb
00000010: 3c18 b7b9 2b6b 8fba 6a73 bfba 825b dc3a
00000020: 4c07 3ebb 6239 99ba 516f fb39 23f0 733a
00000030: da3c e63a af0b 28ba acad d7ba e540 20bb
00000040: 1a6d 733b eda7 84ba 7778 95b5 9dd2 abba
00000050: 2155 2cbb b1f7 85ba abf1 43bb 5a4e 6f3a
00000060: 4fcb 3cbb 773b db3a 9abd 09b8 ae05 13bb
00000070: 084c e3ba c960 0abc 0ace f7bb f61d 4dba
00000080: f949 bb3a 443f 0bba 1fc5 73bc 8da9 32ba
00000090: 8ca7 12bb 6ab4 c0ba 547c 80bb 7950 243a
000000a0: 1a5f 8c37 7548 f1ba fef8 0abb acaa c339
000000b0: 5181 37ba 521c fcb9 bb29 7fbb c3af ac3a
000000c0: 5576 fab9 09b1 3abb 87ce 2cb9 e208 85ba
000000d0: da29 0cbb 301b 81bb a478 453b a0b7 91b7
000000e0: 4f4a 26ba 3481 28bb c8cb ecb6 6335 85ba
000000f0: 8dbe fe38 4563 3fbb ea68 4bb9 9fe9 84ba
00000100: e3a9 3fbb 10e8 313b c4fd 0fbb 3dd6 02bb
00000110: 57cd 2b3a 2022 4dbb f5c1 9bba f0c6 1fbb
00000120: d23f 82bb e9e0 48bb 7f20 6ebb 5640 23ba
00000130: 50c7 adbb 51ff 09bb 8886 9d3a 235a 99ba
00000140: effb f4ba 1e9f e2ba 5789 ebba ff31 523a
00000150: dfef 80b8 57e9 97bb 9f77 a6bb cb40 21ba
00000160: 47a1 23bb 10e0 34bb 373b ad3a b833 93bb
00000170: 54bf 87bb b974 4bba 8b27 e539 d0d7 d7ba
00000180: 3c08 d4ba e226 e2ba f5e5 f73a 157b 15ba
00000190: 9b32 33b8 7019 9035 407c 2cbb bbf5 873a
000001a0: 28ea 4bb9 5c11 df39 aaa2 9a3b 4405 8aba
000001b0: dbfa 873b 505c 85bb 4453 ffba b23f 23bb
000001c0: 70b9 84ba 6ebc 213a d8f5 d2ba 436b 23ba
000001d0: 5727 f7ba a56c 97bb 961a 40b8 bd59 73bb
000001e0: 08e8 08bb 233d 6c3b f744 1dbb 93cc 77bb
000001f0: 4014 4e3b 6a20 03bb 24dd 143b 813c 523a
00000200: 4d51 2a3d c085 d73b 4d92 2eba f6a8 353a
00000210: ab33 f43c 6313 d3ba 7ff3 b43b 764d 223c
00000220: 0cd0 253a dfc6 3a3c 98b2 e6ba 963f 833c
00000230: 626d 063d 78c8 4b38 de8e 66ba ee3b 9c3b
00000240: 8cfb adbc 3494 0ebc 3e97 0a3b ba1c 0d3c
00000250: 9823 923c 38e3 6a3a 5ede 9d3a ebde 253b
00000260: ecb5 153c c0c9 3f3c 5d29 323b 62d8 533c
00000270: 4f56 453c 9d90 b83d 9c85 4d3d 7626 d73a
00000280: 0040 f53b e59f 283c aa8e 8e3d 1aee 7dbd
00000290: 4408 de37 da3b c03c 49a8 5fba d01c e93d
000002a0: 5f73 4cbc 7331 803b f7dc 96ba 2d36 083c
000002b0: c834 36bb 6d1e a939 1d6c d63b de7a afbc
000002c0: 9322 7d39 3961 0cbc ebbc 483d 3e61 bd3b
000002d0: b22b ddbb 3c1c da3b ab2a 643d 9c8e 0eba
000002e0: 467f a0b7 0999 1c3c 1c25 30ba 8947 453a
000002f0: eab0 62bc 185e 573c 2503 5b3c 22eb d13a
00000300: 87fb fdbd 9ae3 5d3a fcc6 a539 a90c 4c3d
00000310: a278 253a 22f8 5a3d 5e78 e43b 6a83 2c3c
00000320: 7191 403b 7d52 e93b a632 933c d721 0ebc
00000330: d659 733b 7ee9 77b8 f49c 6b3c 72d0 f73c
00000340: a462 103c f4b7 333c 42b1 18b9 6fc7 763b
00000350: d453 213c 7cbb 45bc 0af8 353d ec09 6e3a
00000360: 16dd 2b39 c702 8938 50a0 153c a9a4 f9ba
00000370: c696 863c 7640 60ba 3a92 3f3c b061 893c
00000380: ce39 d23a b0d4 5dbc 357b 253c 4858 4c3b
00000390: 7278 d53b f8ec 903c 08f1 7e3a 2023 e83b
000003a0: d8c4 98bd 19c2 023d 69f9 183d f690 8c3b
000003b0: 4f3e 3ebd 9adb 2ebc d54c ac3b 6dcd 8b3c
000003c0: 0045 d83a ebaa 133c 248c a33b 40fd 523b
000003d0: 7305 9939 ec31 1d3c 5433 923c 286c 1a3a
000003e0: 9921 d339 ae33 86bb aeea ca3b 3b8c 6b3a
000003f0: 3ec0 20be 9e9d bc3d 3bc1 c538 8e3e 363d

2.bias f4 [128]
-0.0012430565 0.0017952659 -0.060215425 0.045170147 -0.01088758 -0.016609997 -0.055948593 -0.0017464174
0.014349618 -0.022529857 0.02291414 -0.016591331 0.023628863 -0.02675446 0.023050334 0.01623638
0.023826277 -0.008540726 -0.012402876 0.016080322 -0.089081414 -0.1458701 -0.085787214 -0.03642245
0.01935365 -0.02887303 -0.010582751 0.10649894 -0.00030039367 -0.0046982393 -0.00041020976 -0.012300169
-0.0005810878 0.0019772777 0.016946165 0.004850071 0.025169732 0.17785797 0.020228876 0.019421194
-0.016506318 -0.012730393 -0.033357788 0.005577139 0.048919715 0.0034538677 0.02499513 0.007665268
-0.019448139 -0.020343488 -0.005303269 0.044317726 -0.010697444 -0.019492878 0.06176569 -0.016380642
-0.10554764 -0.08211612 -0.15289328 0.1583811 0.017268917 0.021313462 -5.5197193e-05 -0.036784515
0.0011360365 0.0029737812 0.022518 -0.021146072 0.035313413 -0.01785683 0.003199669 0.0036873082
0.0025199014 -0.14667487 0.0026599942 -0.011307136 -0.0005297617 -0.0005706125 0.05196981 -0.01907851
0.0118230125 0.0013942105 -0.009641566 -0.0010457219 0.004319682 -0.04208548 -0.0083975885 0.052630052
-0.006579421 -0.00026138863 0.030703485 0.021942189 -0.0009680001 -3.9563987e-05 0.028944029 0.0046264683
0.0012506677 0.17160739 -0.1745085 -0.006789483 0.026411353 0.0055022654 -0.00057379255 -0.004886094
0.1343248 -0.00044734837 0.025777232 -0.005467727 0.005033066 0.03999147 -0.005681323 -0.0075030513
0.023654047 0.014483516 0.015971767 -0.015227498 -0.1382173 0.026775809 -0.010785454 0.0025310628
0.27746114 0.008059063 0.13180837 -0.022890907 -0.0058746105 -0.035100337 0.0013893713 -0.0067345747
00000000: 0eee a2ba 214f eb3a 73a4 76bd 5504 393d
00000010: d261 32bc b011 88bc 5a2a 65bd 0be8 e4ba
00000020: a91a 6b3c 8990 b8bc 6fb6 bb3c 8bea 87bc
00000030: 5191 c13c 2b2c dbbc 0ed4 bc3c 2802 853c
00000040: 532f c33c 67ee 0bbc 6f35 4bbc e1ba 833c
00000050: 5170 b6bd f95e 15be 35b1 afbd b52f 15bd
00000060: 8c8b 9e3c 2287 ecbc 4663 2dbc 1e1c da3d
00000070: 287e 9db9 b0f3 99bb 6c11 d7b9 a686 49bc
00000080: 2454 18ba 3795 013b afd2 8a3c 58ed 9e3b
00000090: c130 ce3c 6620 363e 07b7 a53c 3219 9f3c
000000a0: 4238 87bc 2393 50bc 2da2 08bd 6fc0 b63b
000000b0: 0a60 483d 495a 623b 96c2 cc3c ee2c fb3b
000000c0: b451 9fbc 63a7 a6bc 0bc7 adbb 8186 353d
000000d0: 5544 2fbc 87af 9fbc 05fe 7c3d b230 86bc
000000e0: 5c29 d8bd 7f2c a8bd 0e90 1cbe a82e 223e
000000f0: 8b77 8d3c 9299 ae3c 8983 67b8 5cab 16bd
00000100: 0fe7 943a c5e3 423b ab77 b83c 873a adbc
00000110: cca4 103d 7d48 92bc 8ab1 513b c4a6 713b
00000120: ee24 253b f031 16be 4c53 2e3b 9141 39bc
00000130: b5df 0aba 2895 15ba 4cde 543d 894a 9cbc
00000140: 4fb5 413c f1bd b63a a9f7 1dbc 9b10 89ba
00000150: 1e8c 8d3b d361 2cbd 0a96 09bc 9c92 573d
00000160: 2f98 d7bb fd0a 89b9 e085 fb3c 1bc0 b33c
00000170: 63c1 7dba 82f1 25b8 071c ed3c a199 973b
00000180: 72ed a33a d9b9 2f3e 5bb2 32be 507a debb
00000190: 9f5c d83c 594c b43b 916a 16ba 871b a0bb
000001a0: 718c 093e 158a eab9 c62a d33c 9e2a b3bb
000001b0: 6bec a43b 18ce 233d 642a babb 28dc f5bb
000001c0: 22c6 c13c 454c 6d3c 39d7 823c c17c 79bc
000001d0: d688 0dbe f158 db3c 79b5 30bc 30e0 253b
000001e0: 630f 8e3e 290a 043c c6f8 063e b685 bbbc
000001f0: ce7f c0bb 5fc5 0fbd 911b b63a b5ad dcbb

4.weight f4 [6, 128]
0.0030839157 -0.00338959 -0.66311854 -0.09012428 0.057322774 0.039577063 0.27447432 0.098730035
-0.08812124 0.076897256 -0.09163301 0.08156735 -0.03116942 0.331346 -0.05869024 0.00055996334
-0.4929242 0.03853675 0.051156063 -0.034050297 0.2668834 -0.89981365 -0.70531374 0.3372854
-0.08265375 0.010256409 0.31169343 -0.19333531 0.00020748327 0.036506396 0.0002552432 0.11485427
-0.0001624913 0.18690263 -0.122402735 0.23522504 -0.17071588 -0.25250497 -0.03505604 -0.03510816
-0.03707184 0.022628587 0.25274858 -0.20569971 0.069973536 -0.01746213 0.22225754 -0.0427974
0.07828245 0.06640346 0.04717393 -0.07054457 0.08079934 0.13968846 -0.1878935 0.10050496
-0.81648356 -0.7887407 -0.83263105 -0.23329872 -0.050710388 -0.050366603 0.00019296493 0.2376906
0.10032733 0.16583046 -0.08329963 0.13914974 -0.024077434 0.07310966 -7.202213e-05 0.27234557
0.059333976 -0.93529356 0.13488641 0.16816851 3.5980298e-05 -0.00019766387 -0.20337418 0.13006549
0.063547336 0.066493206 0.065990925 7.146973e-05 0.13519864 0.2136593 0.06872253 -0.33575767
0.02068139 -0.0005411322 -0.023320695 -0.12147227 0.0001931908 9.092284e-06 -0.089658916 0.04595694
0.167682 -0.29963553 -1.0749481 0.014647332 -0.020725913 0.11899984 8.2249564e-05 0.012851382
-0.22822346 -0.00026381644 -0.046969935 0.24210109 0.24988614 -0.017947476 0.0396415 0.030659555
-0.13553646 -0.041062694 -0.054765824 0.082047865 -0.83402723 0.24463688 -0.008560769 0.21479186
-0.33222964 -0.0035010932 -0.3276106 -0.12940879 0.10115508 0.09847429 0.293285 0.31212
0.003197827 0.04970355 -0.70782393 -0.05347091 0.06869288 0.054190435 0.28320444 0.012049166
0.0899227 0.08814634 -0.043830033 0.0760954 -0.028226895 0.413403 -0.069444396 -0.01360709
-0.32607868 0.038697306 0.058441594 -0.019598428 0.41128823 -0.9463032 -0.7718742 0.3102195
-0.030475872 0.20644294 0.30333677 -0.3260381 0.0001572327 0.036893763 -0.0005222432 0.11958534
-0.00032383137 0.16697632 0.022096276 0.21607922 -0.030899443 -0.2735684 -0.017643774 -0.02433629
-0.03311186 0.024610385 0.18198721 -0.028465448 -0.35772005 0.115261704 0.27451 -0.03244304
0.14458404 0.0518147 0.047426287 -0.026926437 0.08420229 0.18165283 -0.22053283 0.045184772
-0.8465987 -0.806133 -0.8276095 -0.36162007 -0.05732089 -0.026078552 0.00017068046 0.0041493876
0.16366465 0.12566887 -0.06627897 0.12357643 -0.031965747 0.055797495 0.0009288715 0.24738099
0.12342211 -0.96204704 0.09783415 0.24786478 -5.412588e-05 -0.00027766454 0.016912684 -0.03527053
-0.037864823 0.11482452 0.06017863 0.00021830596 0.05431531 0.2586613 -0.00839136 -0.32985756
0.018050423 2.7823564e-05 -0.11084314 -0.1334844 0.000120632925 0.0004379949 -0.019653318 0.032277655
0.15878242 -0.29504985 -0.9137678 0.020712519 -0.041091666 0.112498984 -0.00029438554 0.011969411
-0.24966162 4.777519e-05 -0.04507109 0.2567385 0.24722397 -0.013625194 0.04277497 0.032049887
-0.034975257 -0.030159524 -0.06805074 0.08819676 -0.8252575 -0.0043386137 0.051204905 0.2035557
-0.37617376 -0.042086646 -0.28794262 -0.1530912 0.097337835 0.10152448 0.2402129 0.3177044
00000000: 851b 4a3b e223 5ebb 23c2 29bf 1493 b8bd
00000010: 49cb 6a3d 8f1b 223d e687 8c3e f932 ca3d
00000020: e978 b4bd 4f7c 9d3d 16aa bbbd c80c a73d
00000030: 0357 ffbc 2fa6 a93e 2d65 70bd 81ca 123a
00000040: 9060 fcbe b6d8 1d3d 0589 513d 5378 0bbd
00000050: f1a4 883e 305a 66bf 718f 34bf acb0 ac3e
00000060: 5f46 a9bd 7f0a 283c 4896 9f3e b1f9 45be
00000070: de8f 5939 bb87 153d 2ad2 8539 b738 eb3d
00000080: 6d62 2ab9 6763 3f3e 49ae fabd d5de 703e
00000090: 25d0 2ebe 5548 81be ec96 0fbd 93cd 0fbd
000000a0: a4d8 17bd 965f b93c 4368 813e f2a2 52be
000000b0: 494e 8f3d be0c 8fbc 7b97 633e 544c 2fbd
000000c0: 8d52 a03d 8afe 873d 7339 413d ac79 90bd
000000d0: 207a a53d 7e0a 0f3e 2767 40be 8bd5 cd3d
000000e0: 1105 51bf e9ea 49bf 4f27 55bf dce5 6ebe
000000f0: b2b5 4fbd 364d 4ebd a156 4a39 2a65 733e
00000100: 6a78 cd3d 76cf 293e ff98 aabd 457d 0e3e
00000110: 0a3e c5bc 84ba 953d 960a 97b8 e170 8b3e
00000120: 2f08 733d 666f 6fbf aa1f 0a3e 5e34 2c3e
00000130: 8de9 1638 fe43 4fb9 5241 50be e32f 053e
00000140: 1b25 823d 972d 883d 4026 873d 05e2 9538
00000150: 8371 0a3e 81c9 5a3e 66be 8c3d 6ee8 abbe
00000160: 056c a93c c4da 0dba 0b0b bfbc 74c6 f8bd
00000170: 4393 4a39 108b 1837 189f b7bd 583d 3c3d
00000180: d5b4 2b3e d469 99be e697 89bf 5dfb 6f3c
00000190: 64c9 a9bc 30b6 f33d 667d ac38 9a8e 523c
000001a0: 69b3 69be d850 8ab9 8c63 40bd 59e9 773e
000001b0: 27e2 7f3e 9606 93bc 205f 223d bf29 fb3c
000001c0: 12ca 0abe 5b31 28bd 2152 60bd b608 a83d
000001d0: cf82 55bf 1782 7a3e 7842 0cbc 66f2 5b3e
000001e0: 011a aabe 9972 65bb 94bc a7be bd83 04be
000001f0: 652a cf3d e3ac c93d 7429 963e 31ce 9f3e
00000200: a292 513b f395 4b3d f333 35bf 5004 5bbd
00000210: daae 8c3d caf6 5d3d 2c00 913e dd69 453c
00000220: 6429 b83d 1186 b43d 1f87 33bd e8d7 9b3d
00000230: 173c e7bc 8fa9 d33e dd38 8ebd 46f0 5ebc
00000240: c9f3 a6be 1181 1e3d 7460 6f3d e28c a0bc
00000250: 5f94 d23e ed40 72bf 8c99 45bf 17d5 9e3e
00000260: 89a8 f9bc c765 533e f54e 9b3e 77ee a6be
00000270: d5de 2439 ea1d 173d 26e7 08ba 29e9 f43d
00000280: e9c7 a9b9 d7fb 2a3e 4003 b53c df43 5d3e
00000290: d420 fdbc 2811 8cbe ad89 90bc e65c c7bc
000002a0: 4da0 07bd b89b c93c db5a 3a3e 5f30 e9bc
000002b0: 1527 b7be 540e ec3d 938c 8c3e fee2 04bd
000002c0: d70d 143e a73b 543d 1142 423d d594 dcbc
000002d0: 4072 ac3d 3303 3a3e 5cd3 61be ab13 393d
000002e0: b1ba 58bf bb5e 4ebf 37de 53bf 4426 b9be
000002f0: 4fc9 6abd b0a2 d5bc b0f8 3239 96f7 873b
00000300: b597 273e 57af 003e 45bd 87bd a415 fd3d
00000310: 84ee 02bd ea8b 643d 837f 733a 7151 7d3e
00000320: bbc4 fc3d b748 76bf 455d c83d 44d0 7d3e
00000330: 3905 63b8 8193 91b9 788c 8a3c d577 10bd
00000340: 2518 1bbd 1e29 eb3d de7d 763d 0fe9 6439
00000350: bb79 5e3d 416f 843e ea7b 09bc 17e3 a8be
00000360: 7bde 933c a666 e937 ba01 e3bd 22b0 08be
00000370: 4ffc fc38 aea2 e539 ffff a0bc 9335 043d
00000380: dc97 223e c610 97be b0ec 69bf 4dad a93c
00000390: bc4f 28bd de65 e63d c257 9ab9 591b 443c
000003a0: 4ca7 7fbe 3862 4838 779c 38bd 3b73 833e
000003b0: 4828 7d3e 353c 5fbc cf34 2f3d be46 033d
000003c0: 3742 0fbd 1b11 f7bc 305e 8bbd 81a0 b43d
000003d0: 1344 53bf ee2a 8ebb 3cbc 513d e870 503e
000003e0: d999 c0be 0c63 2cbd 376d 93be f1c3 1cbe
000003f0: 0f59 c73d 11ec cf3d 5ffa 753e 27aa a23e

4.bias f4 [6]
0.0013918504 -0.0005539486 0.021088006 0.0026515347 -0.008794281 -0.007816555
00000000: c06e b63a dc36 11ba c1c0 ac3c 5fc5 2d3b
00000010: e315 10bc 0211 00bc
