taxi-dqn-agent.pt (torch, 93960 bytes, 6 tensors)

0.weight f4 [128, 43]
000000 2e 32 96 bd f9 59 6e bb 98 60 22 3c fb bd 99 3d
       -0.0733379 -0.0036369546 0.009910725 0.07506939
000010 69 64 09 3e ce fa 90 3b 66 2c 9d bd aa f4 b6 bd
       0.1341721 0.0044244295 -0.07674484 -0.08933385
000020 05 1d 86 3c 6d 72 cf 3d 96 9e ef bd e6 d0 8a 3c
       0.01637126 0.10129247 -0.1170017 0.016945314
000030 94 fb 04 be 12 ca e0 3d 4c ac 94 bd dc c0 15 be
       -0.12986594 0.10976042 -0.072594255 -0.14624351
000040 eb 56 0a 3e 3b 07 e1 3c 74 6e 9a 3d 28 9d 96 bd
       0.13509719 0.027469268 0.075405985 -0.07354194
000050 67 c1 10 3e cd e6 d2 bd ff df e1 3d 1e 64 94 bd
       0.14136277 -0.10297928 0.11029052 -0.07245658
000060 60 04 94 3c 1d 60 05 3e 4f 31 7e 3d 2c 94 58 3b
       0.018068492 0.13024946 0.062058743 0.0033047302
000070 6f 34 ee bd 47 ae 7b 3c d8 96 06 3b a4 cf 01 3e
       -0.11631095 0.015361375 0.0020536687 0.12676865
000080 69 38 25 bd b7 d5 ab 3d 80 2c 04 3d b2 97 f8 3d
       -0.040337 0.08390372 0.032269 0.121383086
000090 d9 f5 fd 3d f8 10 a5 3d d4 44 29 bd c6 91 05 3e
       0.12400407 0.08059877 -0.041325405 0.1304389
0000a0 fd f4 2c 3e ba ab 8b 3d c0 42 9c 3d fb 7b fa bc
       0.1689033 0.068198636 0.07629919 -0.030576697
0000b0 a9 f0 c6 bd ed e4 da bd 01 30 e7 bd 13 81 25 3e
       -0.09713871 -0.106881954 -0.11288453 0.16162519
0000c0 45 4d 03 be 2f 42 74 3c c9 bf 83 bd 11 76 bf 3d
       -0.12822445 0.0149083575 -0.064330645 0.09348691
0000d0 39 41 3c 3d 3e f9 8e 3d 91 23 04 3e 86 dc 9e 3d
       0.04596064 0.06981133 0.12904193 0.07756905
0000e0 3c 40 d1 3c 0d 4a b6 3d 96 19 cd bc d0 67 52 bd
       0.025543325 0.08900843 -0.025036614 -0.051368535
0000f0 9f b8 97 bd e7 36 5e 3c 14 ae 19 bd a9 2f 9d 3c
       -0.074082606 0.013562894 -0.03751953 0.019187765
000100 26 10 32 3e 7b a9 40 3d 79 11 db bd a4 d5 cc 3d
       0.17388973 0.04703663 -0.10696692 0.10001686
000110 b6 3f 08 3e 09 d1 9c bd cf 51 f3 3d 27 d5 cc 3d
       0.13305554 -0.07657058 0.11880838 0.10001593
000120 75 db 1c 3d 40 c0 2e bd c8 3d aa bd e5 c3 18 3d
       0.038295228 -0.042663813 -0.08312565 0.037296195
000130 ac 88 54 3d 4a 66 c8 bd ce f9 c8 3c 0b a3 da bd
       0.051888153 -0.09785135 0.024533179 -0.10675629
000140 bb 39 84 3a c2 88 72 bd 41 57 55 bd 12 fa 23 3e
       0.0010088006 -0.059212454 -0.052085165 0.16013363
000150 6d 1f f0 3d 4e 09 4d bd ba 36 2a bd f3 b3 fa 3d
       0.11724744 -0.0500577 -0.041556098 0.12241354
000160 91 2d 0a be 9b 0b c4 3d f4 4f 18 be e2 71 7e 3d
       -0.13493945 0.09572526 -0.1487425 0.062120326
000170 51 e1 20 3e 55 bb f6 3d 9d 2e 0d be 8a 12 56 3d
       0.15710951 0.120474495 -0.13787313 0.052263774
000180 ae ba f3 bd a2 6f 8f bd b3 4c 2f bd 84 00 aa 3d
       -0.11900841 -0.07003714 -0.042797755 0.083008796
000190 85 4c 8d bd bb 95 ef 3d 7f 37 f2 bd 02 79 15 3e
       -0.068993606 0.11698481 -0.11826991 0.14596942
0001a0 99 91 1f 3d 63 f7 e5 bd 3d ad 9f 3c 5a 4c c5 bb
       0.038957212 -0.11228826 0.019491786 -0.0060210647
0001b0 00 91 07 bd c4 2e 9a bd ad a6 27 3e 3d f7 c1 bc
       -0.033097267 -0.07528451 0.16372176 -0.023677463
0001c0 6b ad ff bd 3c 9a af 3c b2 ad 23 3e 2e d9 fe 3d
       -0.12484249 0.02143585 0.15984228 0.124437675
0001d0 d2 54 21 bd 77 6f e1 3c e3 22 f7 3d 0c a4 0b be
       -0.03938753 0.02751897 0.12067201 -0.13636798
0001e0 5b 83 e0 3c 77 1f fa bd 64 d4 4c bd 9e 18 92 bc
       0.027406385 -0.12213033 -0.05000724 -0.017834004
0001f0 45 fe 12 be a3 cf 48 b9 c9 49 80 bd 13 5c 44 bd
       -0.14354809 -0.00019150837 -0.062640734 -0.04793937
000200 71 fa 98 3d e7 26 ef bd 2b 4b 17 3a ea 4c 18 3d
       0.07469643 -0.11677342 0.0005771394 0.037182726
000210 e6 2a ed bd e6 cf 60 3d b7 34 d7 3d 0f 1a dc bd
       -0.11580448 0.054885767 0.105081014 -0.10747158
000220 8d 27 1e 3e d7 a5 c3 bd 15 95 56 bd 63 c8 b9 3d
       0.15444775 -0.09553116 -0.05238827 0.09071424
000230 cf 75 fc 3d 53 d3 7a bd 37 c4 0a be ec 6c 17 3e
       0.12327158 -0.06123669 -0.13551413 0.14787644
000240 55 67 85 3c e1 60 ac 3d f3 6a 0c bd 74 5c 88 3d
       0.016284624 0.08416916 -0.034281682 0.06658259
000250 e5 f4 09 be d6 c0 2e 3e db a8 8b 3d 0a fc 6b bc
       -0.13472326 0.17065749 0.06819316 -0.0144033525
000260 f5 80 04 be 40 59 a8 3d e7 8d 45 bc 3b 17 03 3e
       -0.12939818 0.08220148 -0.012057758 0.1280183
000270 73 c6 d0 3d 4e e2 d2 bd 1c 37 44 bd e9 d9 19 3e
       0.10194101 -0.102970704 -0.04790412 0.15024532
000280 ce e9 ca bb 19 f6 ae bd f7 a5 fb 3c c6 98 0a 3e
       -0.0061924225 -0.08543033 0.030718787 0.13534841
000290 9f b2 f5 bc 00 6e b7 3d 00 19 99 3d 38 ba 05 3e
       -0.0299924 0.08956528 0.074754715 0.13059318
0002a0 39 be 29 3b a1 cf 93 3b 48 02 e6 bd 36 c3 0c be
       0.0025900735 0.0045108353 -0.11230904 -0.13746342
0002b0 3b 5e 03 3e 66 bd 10 3d b2 fc 37 3e 11 1d 90 bd
       0.12828915 0.035336874 0.1796749 -0.07036794
0002c0 de cf 27 3d eb d8 3d 3e a2 17 43 3b 78 ce 5a bd
       0.040969722 0.18539779 0.0029768725 -0.05341956
0002d0 ea d7 6d 3d ed 2f 26 3e 87 58 9a bd 46 81 1b be
       0.05806724 0.1622922 -0.075364165 -0.15186033
0002e0 d5 f6 6b bd 1c b0 91 bd 68 c4 34 3c b2 98 c3 bd
       -0.057608444 -0.07113668 0.011033155 -0.09550609
0002f0 bb ce 8b 39 47 91 f9 bd 14 9b e8 bd 00 37 8d bd
       0.00026666172 -0.121859126 -0.11357704 -0.06895256
000300 40 b2 10 bd bd 90 58 bd 14 c7 e1 bc 5a d9 5c bd
       -0.035326242 -0.05287241 -0.027560748 -0.05391822
000310 60 ee 0f 3e 6a c2 e8 bd 45 42 7a bc bd ac 03 3d
       0.14055777 -0.113652065 -0.015274589 0.032147158
000320 95 58 d3 3d c0 dc 1d 3e 8b aa 03 3e 94 4d e2 bc
       0.1031963 0.1541624 0.12858026 -0.027624883
000330 e3 b4 a0 3d 03 dc f9 bc 3d d4 cc bc b5 5e b1 bb
       0.078470014 -0.030500418 -0.025003547 -0.0054129013
000340 88 e7 13 be 31 8d 82 bd 30 0b 8f bc 0e 8a 6f bc
       -0.14443791 -0.063745864 -0.01746139 -0.014620317
000350 f1 50 23 3e e7 c8 84 3c a1 70 86 3d b9 c3 fe bd
       0.15948845 0.016209079 0.06564451 -0.12439675
000360 96 17 69 bd 36 50 dc 3d db 37 ec 3d 1a 64 77 3d
       -0.05690726 0.107574865 0.11534091 0.0603982
000370 8b 68 8b bd fc 53 a0 3d bf 36 da 3d e2 6e 5a ba
       -0.06807049 0.07828519 0.10654973 -0.0008332563
000380 07 ff 6a 3d 09 6c 04 3e 57 17 09 ba 1f 28 1b 3d
       0.05737212 0.12931837 -0.0005229613 0.03788006
000390 9f 3c e9 bc 31 35 f5 bc 70 3e 88 3d f8 fa 90 bd
       -0.02847129 -0.02993259 0.06652534 -0.070791185
0003a0 a9 53 fc 3c c2 01 b2 3d 69 c0 2c bd d0 b2 b9 bd
       0.030801611 0.086917415 -0.042175684 -0.09067309
0003b0 15 03 36 bd 7e d7 3b bd 98 dc 63 3d 2f 0b f0 bd
       -0.044436533 -0.045859806 0.055630296 -0.11720883
0003c0 76 06 0a 3e 39 62 e7 3c 4b bf 03 3c 0a a8 18 3e
       0.13479027 0.028245078 0.008041213 0.14907852
0003d0 cf 12 2d 3e 15 f9 0d 3e d2 de 0f 3e db 89 24 3d
       0.16901706 0.13864549 0.14049843 0.04017053
0003e0 95 3f cb 3d 9e 6c 87 3d d6 31 4a 3d a0 11 d9 3c
       0.09924237 0.06612514 0.049363934 0.026497662
0003f0 ae d7 15 3c 40 6d 3c 3d 11 59 d4 3d 4d 2b f4 bb
       0.00914566 0.046002626 0.103685506 -0.007451451

0.bias f4 [128]
000000 6a ef 94 3d 37 e4 56 bc 4a ac dd bd d2 75 97 3c
       0.07272227 -0.013115934 -0.10823877 0.018488798
000010 2e 09 0f 3e a2 27 9e bc f5 e8 e3 bd 64 07 8b 3c
       0.13968346 -0.019306008 -0.111284174 0.016971298
000020 f2 ae f8 bc 74 04 1f bd 28 77 3d bd 98 3a 01 3e
       -0.030356858 -0.038822606 -0.046256214 0.12620008
000030 0f 39 ee 3d 7b 7e c4 bc 09 6d 40 3e ef 99 b8 3c
       0.11631977 -0.023986092 0.18791594 0.022534339
000040 37 09 24 3e 0e f0 35 3d b0 6f e4 3d 0f 02 f1 3d
       0.1601914 0.044418387 0.11154115 0.11767971
000050 ca 29 c4 bd c4 58 b1 3d 44 ff b4 bd b9 00 f7 3d
       -0.09578283 0.08659509 -0.088377506 0.12060685
000060 fb 57 88 bd 7e 9f 37 3e 1b ad d7 bd 09 d1 e7 bd
       -0.06657406 0.17931935 -0.10531064 -0.11319167
000070 00 85 85 3b 0f 7e 2d 3e bf 4c 38 3e 3d d5 bd 3c
       0.0040746927 0.16942619 0.17998026 0.023172969
000080 64 1f 23 bd 4a 9a 2f 3e 6f 46 2c 3d 5d ec 30 3d
       -0.03982486 0.171487 0.04205936 0.043194164
000090 8b 51 f7 3c 80 ce b9 3d 0c de e1 bc ea d4 de 3d
       0.03019025 0.0907259 -0.0275717 0.10880454
0000a0 a7 0c 69 bd d5 34 91 bd 14 90 de 3d f6 d8 d2 3b
       -0.05689683 -0.07090155 0.108673245 0.006434555
0000b0 45 6a de 3d 98 67 1f bd 90 1b 40 3e 41 83 cf bb
       0.10860113 -0.038917154 0.18760514 -0.0063327854
0000c0 5b 37 01 be a1 e6 d5 bc 94 f1 ec 3d 02 e9 a2 bc
       -0.12618773 -0.026110949 0.11569515 -0.019886497
0000d0 b2 bc b8 3c c2 1f 0a 3e 2f cc ae bd 74 e6 26 3e
       0.022550914 0.13488677 -0.08535039 0.16298848
0000e0 e9 59 c6 bc 32 a9 49 3d c3 5c a5 3d cf 16 9b bd
       -0.024212794 0.049233623 0.080743335 -0.0757271
0000f0 db f4 9f 3d 13 d2 20 3e 11 d1 70 3c a1 51 0e 3e
       0.07810374 0.15705137 0.014698283 0.13898326
000100 a7 2e 17 3d ee 09 c9 3d 1e 1d 35 3d 1b 2a 11 3e
       0.036909726 0.09816347 0.04421722 0.14176218
000110 91 99 f9 3d f3 3f ee 3d 50 40 95 3d 9c 38 35 bc
       0.121874936 0.11633291 0.07287657 -0.01106086
000120 14 e6 7c 3c 4a eb 1e 3e fa 8e ce 3d 34 b3 a2 3d
       0.015435714 0.15519443 0.10085864 0.079443365
000130 19 e9 14 3e 08 31 a8 3c 74 5c ee 3d 81 5c 99 3d
       0.14542045 0.020531192 0.11638728 0.07488347
000140 b8 e9 43 3d b8 9a 7b bc e7 da 34 3e 91 66 cf 3c
       0.047830313 -0.015356712 0.1766163 0.025317462
000150 b5 f6 a2 3d f8 ff a2 bd 1b 33 b0 bd d0 f3 9c bd
       0.07957212 -0.079589784 -0.086034976 -0.07663691
000160 bc 20 29 3e 3f e3 d5 3d ac 31 2c bd 95 75 16 3c
       0.16516393 0.104437344 -0.04203956 0.009183307
000170 df cd 0d 3d dc 96 a0 3c 3a ea 76 bc 2a 17 ae 3d
       0.034620162 0.019603185 -0.015070492 0.08500512
000180 5c 68 de bd 36 e5 37 3e c9 07 0c 3e d9 de ee 3d
       -0.10859749 0.17958531 0.13674845 0.116635986
000190 71 da 57 3d c8 0e 04 bd 2b 62 ea 3d a8 f8 17 3e
       0.052698556 -0.03224066 0.11444505 0.14840949
0001a0 86 44 46 bc 5f 2a 08 bd fc ef 17 3e 45 b2 dd 3c
       -0.012101298 -0.033243533 0.1483764 0.027062545
0001b0 a1 3c 83 3d 9c e6 be bd bb d4 ef bc dd a4 67 3d
       0.064080484 -0.09321329 -0.029276242 0.05655371
0001c0 94 03 1d 3e 25 90 36 3e be 18 c4 bd 9c 71 17 bd
       0.15333396 0.17828424 -0.09575032 -0.03697358
0001d0 26 5e 46 bb e0 a1 08 3d c3 80 3d 3e b2 54 31 bd
       -0.003026852 0.0333575 0.1850615 -0.043293662
0001e0 ad 89 d9 3d f6 69 1a bd de 97 00 3e e6 ba 65 bc
       0.10621963 -0.03769871 0.12557933 -0.014021611
0001f0 4f 6d ed 3d 08 a3 bc bd 35 ad 37 3e bf 6b c0 bd
       0.115931146 -0.09210783 0.17937167 -0.09395551

2.weight f4 [128, 128]
000000 a1 d6 9a 3d 1d 7a 12 3d 5e c7 5c bc bc 1b 75 3d
       0.075604685 0.035760988 -0.013475267 0.059840903
000010 02 09 1f 3d 4b be ee 3d ae 5f 92 bc 3f 97 67 bb
       0.03882695 0.11657389 -0.01786789 -0.0035337952
000020 03 b7 3a bc 33 bc bb 3c 6c 92 23 3c 5e 15 22 3d
       -0.011396172 0.022916889 0.00998364 0.03957116
000030 98 e7 a4 3d 6e 6f b3 3d 7d fe 2e 3d e9 fe e0 3d
       0.080519855 0.08761488 0.042723168 0.1098612
000040 38 af 0b bd fa c0 2e bd 76 3a 28 bd 49 a7 45 3d
       -0.03410265 -0.042664506 -0.041071378 0.04825524
000050 e7 e5 80 bc af 45 9c 3d 30 26 f6 bc c9 91 11 3c
       -0.015734626 0.076304786 -0.030047506 0.008884856
000060 c5 db 2d bd 51 18 25 3d 71 be d3 3d 7d 6f 19 3d
       -0.042445917 0.040306393 0.10339058 0.03745984
000070 0a de 1d bb 03 be c4 3d ae c7 c2 ba 14 10 30 bd
       -0.0024088644 0.09606554 -0.0014860535 -0.042984083
000080 e4 d1 cb 3d 3e 38 24 bc 19 aa 19 bd c3 55 5d 3b
       0.09952143 -0.010023175 -0.037515733 0.0033773042
000090 e6 ad 8c 3d 94 24 c7 3d c3 51 51 bd d1 e7 95 3d
       0.06869106 0.097237736 -0.051103365 0.07319606
0000a0 48 2c a2 3d 75 7b f3 3d a7 0e 7c ba 58 48 46 3d
       0.07918602 0.11888782 -0.00096152205 0.048408836
0000b0 c9 78 49 bd 88 d9 13 bd e2 44 01 bd aa 88 b9 3d
       -0.049187455 -0.036096126 -0.031559832 0.0905927
0000c0 4e 1a c0 3c 55 fd 5f 3b 94 85 cd 3d 99 09 92 3d
       0.023450043 0.0034178097 0.10035244 0.07130737
0000d0 cb 6f e2 3d 2b 3b 34 3d d1 af a0 3d e0 11 66 bd
       0.11056479 0.04400174 0.07846034 -0.05616939
0000e0 fa 7a 5f 3d 2c 82 1a bd b9 cd 74 3c 13 67 95 3d
       0.05456064 -0.037721798 0.014941626 0.072950505
0000f0 d0 f4 2f 3c 49 3f 74 bc 02 1b 1d bd 3e e9 cb 3d
       0.01073952 -0.0149076665 -0.038355835 0.09956597
000100 5c 7c 0c bd 27 50 bd 3d ac b7 be 3d 59 af 77 bb
       -0.034298286 0.092438035 0.093123764 -0.0037793724
000110 f2 57 b4 3d 3b 01 d5 3d e9 76 b2 3d 36 e6 a6 3d
       0.08805837 0.10400625 0.087140866 0.08149378
000120 0c 15 ee 3c 15 ba c6 bc a6 78 ae 3d ad 33 e5 3c
       0.02906277 -0.024258653 0.085191056 0.027978742
000130 a9 cb 83 3d 1d 38 2b 3c 12 7f ef 3d 10 5d 95 3d
       0.064353295 0.01045039 0.116941586 0.07293141
000140 2d bb e3 3d 2d b3 72 3d d6 80 0e bd af 17 66 3d
       0.11119685 0.059252907 -0.034790836 0.05617493
000150 e8 56 c1 bc 26 d2 09 bd 7b cc 24 3b cf 75 96 3d
       -0.02360101 -0.03364768 0.0025146294 0.07346689
000160 b8 24 6c bc 1a 37 c7 3d 3d b0 c4 3d cd 7c 46 bd
       -0.014413051 0.09727307 0.09603927 -0.048458863
000170 32 e8 2f bd 80 fb d5 3d 79 86 e7 3d 9c 8d ef bc
       -0.042946048 0.104483604 0.113049455 -0.02924233
000180 19 00 14 bd be e3 44 bd af a5 cb 3d 2d 46 da 3d
       -0.036132906 -0.048068754 0.09943711 0.10657916
000190 ab 91 99 3d f0 29 6d 3d c2 ea 18 bd 72 49 70 3d
       0.07498487 0.057901323 -0.037333257 0.058663793
0001a0 49 d6 3d 3d 79 8f e8 bc de 99 19 3d 1f 47 d8 3d
       0.046346936 -0.028388726 0.037500255 0.1056044
0001b0 cf b3 a1 3d ac 13 12 3d 4b d9 43 3d 89 4d 84 bc
       0.07895624 0.03566329 0.04781465 -0.016150253
0001c0 96 21 70 3d 78 ce b8 3d e4 d5 c3 3c 52 84 b5 3d
       0.05862578 0.09023756 0.023905702 0.08863129
0001d0 ff 7f bd 3d ac 97 21 3d 49 16 61 bd 84 df 23 3d
       0.09252929 0.039451286 -0.054952893 0.040008083
0001e0 65 c3 74 bd e7 97 5b bd 89 6f 0f bd e6 1a ca 3c
       -0.059756655 -0.053611662 -0.035018478 0.02467103
0001f0 a5 01 88 3d 3b 9e ae bc 89 f7 7d 3d af c8 81 3d
       0.06640939 -0.021315685 0.062003646 0.063371055
000200 74 f0 57 3d 92 1f fc bc 7d 79 32 3d 17 98 33 bc
       0.05271955 -0.030776773 0.04357289 -0.010961554
000210 3d 72 9f bd cf 6f 8c 3c ed 96 92 bd e1 89 3c bd
       -0.07785461 0.017143158 -0.07157693 -0.04602993
000220 97 3a 48 3d c2 9b 96 3d 5c 42 27 bd 5d 3d e3 bc
       0.048884 0.07353927 -0.04083477 -0.027739221
000230 af 2d 7d bd 29 0a 80 3d 92 ed 36 3d aa bf 1d bc
       -0.061811145 0.06251938 0.04466016 -0.009628216
000240 c8 e0 ac 3d 53 9b da 3b 17 b9 83 3d 22 e0 ba bd
       0.08441311 0.006671348 0.064317875 -0.09124781
000250 4d 53 3e 3d e8 72 ac 3d 1b f1 a9 bd f3 aa 0c bd
       0.04646616 0.08420354 -0.0829794 -0.034342717
000260 e8 e8 30 3c 1d 4e 62 bc 75 83 10 bd f1 b7 21 bb
       0.010797717 -0.013812569 -0.035281617 -0.0024676288
000270 3a 5d 9a 3d d9 42 44 bd ae f6 ab 3d 98 77 3a 3d
       0.07537313 -0.047915313 0.0839666 0.04552421
000280 a7 18 9e bb c2 e9 81 bd 4a 6a 8b bd ca 8c 9c bd
       -0.004824716 -0.06343414 -0.068073824 -0.07644041
000290 14 8f 93 3c 18 a3 9f bb 2c 47 4d bd 75 73 95 3d
       0.01801256 -0.004871737 -0.050116703 0.07297412
0002a0 f9 4b d8 3c 91 44 61 3d 3a 3a ce bd 35 90 31 3d
       0.026403414 0.05499703 -0.100696996 0.043350417
0002b0 2b 4e a1 3d 80 09 4e 3c 5f 1e c0 bb f9 0e ac bd
       0.078762375 0.012575507 -0.0058629955 -0.08401293
0002c0 fd 42 57 b8 59 3c b2 3c 2f d5 93 3d e9 6d 51 bd
       -5.1322382e-05 0.021757292 0.07218396 -0.05113021
0002d0 c8 e3 a0 bc 76 dc 49 3d 96 d4 dd 3a 48 f8 37 bd
       -0.019639865 0.049282514 0.0016924317 -0.044914514
0002e0 d6 04 b6 bc 5f 4b b8 3d f1 71 a0 bd aa ca ad 3d
       -0.022219103 0.08998751 -0.078342326 0.08485921
0002f0 93 4f ae 3d d6 b3 a9 3d 5c c0 96 3c 25 4b fe 3b
       0.08511271 0.08286254 0.018402271 0.007760423
000300 02 a5 70 bd d9 de a6 bd 0c 07 bb bd f2 bc a7 bd
       -0.058751114 -0.081479736 -0.091322035 -0.08190335
000310 31 87 de 3c a9 c3 99 bd 8c 43 95 3d c3 f7 9e 3d
       0.027164074 -0.07508022 0.07288274 0.077621005
000320 40 a3 65 3d 79 49 89 3c 73 90 c0 bd 8f 14 7d bc
       0.05606389 0.016758667 -0.094025515 -0.015446796
000330 e0 ce f7 bc 0e 01 a8 3d 92 48 c2 3b 1f 53 8f bc
       -0.030250013 0.08203326 0.005929061 -0.01749569
000340 73 0f 8f bd 04 ca 4a 3d f4 c9 00 bd f3 47 5c bc
       -0.069853686 0.049509063 -0.031442598 -0.013444888
000350 f7 5c 3b 3d 38 ce 9e bd e7 a1 af 3d fa 8a 8c 3d
       0.045742955 -0.07754177 0.08575802 0.06862445
000360 77 65 3c bd fa fb 5e bd 11 56 8d bd c0 75 93 ba
       -0.045995202 -0.054439522 -0.069011815 -0.0011250302
000370 4b 9b 30 3b de c9 29 3d e5 20 47 bd 19 c5 79 bc
       0.002694803 0.04145228 -0.048615355 -0.015244746
000380 04 6c 9f bd 19 60 89 bd c4 76 f8 3b 92 b0 8e 3d
       -0.07784274 -0.06707782 0.0075825173 0.06967272
000390 35 9f 2d bd 3c ca cc 3d 98 8f 47 bc 56 f9 4d bd
       -0.04238816 0.09999511 -0.0121802315 -0.050286613
0003a0 c5 9e 96 3b 54 be ed bc bf d6 f0 bc 45 97 4b 3a
       0.0045965635 -0.02902142 -0.029399274 0.00077663764
0003b0 fd 60 67 bd 5e 42 9f 3d 3a b3 1c bc 43 fd 8a 3b
       -0.05648898 0.077763304 -0.009564215 0.004241617
0003c0 d7 a7 91 bc 5d a3 2c bd 4f 51 48 3d 17 d5 2d 3a
       -0.017780228 -0.042147983 0.048905667 0.0006631179
0003d0 cc bf 9c bd 8d 9a 45 bd 74 51 3f 3c 04 c4 ca bd
       -0.0765377 -0.048243094 0.011677135 -0.09900668
0003e0 18 80 6a bc 34 b5 e2 bc 18 fa 34 bc d3 9b 56 bd
       -0.0143127665 -0.027674295 -0.011045955 -0.0523947
0003f0 8f 69 46 3d eb af 93 bd f3 1a 14 bd b1 c6 92 bd
       0.048440512 -0.07211288 -0.036158513 -0.07166804

2.bias f4 [128]
000000 36 9c 6e 3d 53 61 00 bd 72 23 28 bd a7 bc 9c 3b
       0.058254443 -0.031342816 -0.04104943 0.0047832313
000010 04 4c ab bc 28 04 91 bc 94 4c c2 bc 9a 4b 48 3d
       -0.02091027 -0.017702177 -0.023718156 0.048900224
000020 05 49 ba bc 06 12 1a 3d 55 0d a7 bd d8 98 46 bd
       -0.022739897 0.037614845 -0.0815684 -0.048485607
000030 34 c2 c8 3d 9f b5 5d bc 59 37 a2 3d 43 dd aa 3d
       0.09802666 -0.013532071 0.07920713 0.083429836
000040 e7 3b 11 bd 5b bb c6 bb a2 0d b1 bd 2f 56 f5 3d
       -0.035457518 -0.006064815 -0.086451784 0.11979329
000050 47 32 20 bd 78 13 03 3d f7 1f ea 3c d7 36 0d bd
       -0.03911045 0.03200099 0.028579695 -0.034476127
000060 f0 4f d1 3c 13 e2 a7 3d e7 50 8b 3d 17 3b 85 3d
       0.025550812 0.08197417 0.0680254 0.06505411
000070 4d cf 8b 3c 8a 3a 4d bc f8 8b 95 3d e0 68 6e 3d
       0.017066622 -0.012526164 0.073020875 0.058205485
000080 7c b2 ac bd 2f 01 59 3d e4 8a 67 3d 4d f6 93 3c
       -0.08432481 0.052979644 0.05652894 0.018061781
000090 f9 c3 05 3d 87 3f 92 3d 4f 24 32 bd c8 95 5f bc
       0.032657597 0.07141023 -0.043491658 -0.0136465505
0000a0 20 c6 ad 39 42 32 b4 3d e1 a0 53 bc c3 54 9e bd
       0.00033144746 0.087986484 -0.0129167745 -0.07731011
0000b0 1a a2 b8 3d fb 42 28 bc d1 69 bf 3d cb 83 50 3d
       0.090152934 -0.010269876 0.09346355 0.050906938
0000c0 d7 fe f2 3d 85 fa 56 3c 01 40 9f 3d 52 a6 22 3d
       0.11865013 0.013121252 0.0777588 0.039709397
0000d0 b6 33 c0 3d 29 ca 54 3c 8b 98 d3 3c 73 25 84 bd
       0.09384863 0.012987652 0.025829574 -0.06452455
0000e0 8e c3 3d bd aa f9 33 3d 35 71 83 3d 71 6d f1 3d
       -0.046329074 0.04393927 0.06418077 0.117884524
0000f0 75 f2 47 bd 67 9a 2a bd 4b ec ec 3d cb 01 43 bd
       -0.04881521 -0.041651156 0.11568507 -0.04760913
000100 96 4e b5 3d c4 95 b1 3d f3 8c 9e 3d bb a3 09 bd
       0.0885288 0.08671144 0.07741728 -0.03360341
000110 8d 5c af 3c 8b bd 75 3d 0c cd 06 3d b6 29 c0 3c
       0.021406436 0.059995215 0.03291039 0.02345739
000120 64 b8 f2 3b ea 17 78 3c 53 ce 9b 3d 7a 4c b8 bc
       0.007407235 0.01514242 0.076077126 -0.022497404
000130 84 33 9a 3d b5 bf 48 bd 86 94 85 3d ed 13 18 3d
       0.07529357 -0.04901095 0.06522469 0.037128378
000140 13 69 25 3d 00 74 38 3d f5 7f b9 bd e0 e2 b7 3d
       0.04038341 0.0450325 -0.09057609 0.0897882
000150 3c 68 cc bc 80 d2 76 bd c5 8a c7 3c f5 08 f7 3c
       -0.024952047 -0.060259342 0.024358163 0.030155638
000160 fc 57 2a 3d 4a d6 03 3d ae 1d ca 3d 9e 0a c8 3d
       0.041587815 0.032186784 0.09868942 0.0976765
000170 79 f3 7c 3d 13 91 a0 bd 8f 8a 93 3d ad cd 91 3d
       0.06175563 -0.07840171 0.07204162 0.07119308
000180 9c 38 c4 3c b0 09 cc bc 52 31 be bd a1 e0 8d 3d
       0.023952775 -0.024906963 -0.09286751 0.0692761
000190 8c b0 c5 3d a1 88 68 bd 7d e9 94 3c 3f 04 f7 3c
       0.09652814 -0.056770924 0.018177742 0.030153392
0001a0 38 62 31 bd dd d2 b9 bc 2d 97 1b bd 4e c1 72 3d
       -0.04330656 -0.022683555 -0.03798597 0.05926638
0001b0 3b 1d 28 bd c3 e1 7a bd e8 c8 d7 bc ca 56 ce 3c
       -0.0410435 -0.06125046 -0.026340917 0.025187869
0001c0 85 a0 be 3d 09 83 b7 3d 89 a5 8b bd fc 43 95 bd
       0.093079604 0.0896054 -0.06818683 -0.072883576
0001d0 4d 84 2b bd 24 d4 b2 bd fe f1 cd 3c e7 3a f2 bc
       -0.04187422 -0.08731869 0.025139805 -0.029569102
0001e0 94 4f b2 bd de b5 94 3d 36 fd b8 3c b8 3e 71 3d
       -0.087065846 0.07261251 0.022581678 0.058897704
0001f0 90 ec 0c 3d 98 df 2d 3d 9c 9d 0b 3d f5 e4 1d 3d
       0.03440529 0.042449564 0.034085855 0.03854843

4.weight f4 [6, 128]
000000 6d 5b a4 bd 93 ef 30 bd f2 a3 a7 3d bf a8 11 3d
       -0.080252506 -0.043197226 0.08185567 0.03556132
000010 88 4d 15 bc 92 08 83 3d bc 37 20 3d c8 05 0f bd
       -0.009112723 0.06398119 0.039115652 -0.034917623
000020 81 eb 57 bd 3c 5c f1 bc e5 1f a5 3d 81 7a 1d 3c
       -0.05271483 -0.029462926 0.08062724 0.009611727
000030 e4 30 07 3c 65 3a 41 3d e1 4f 10 bd bd e9 d9 bc
       0.0082514025 0.04717483 -0.03523243 -0.026600713
000040 bc c3 9a 3d e1 81 bd bc 94 d1 86 bd 38 1e 84 3d
       0.075568646 -0.02313322 -0.065829426 0.06451076
000050 10 87 b7 3d 61 5b c5 bd 48 a6 7b ba 63 50 97 bd
       0.08961308 -0.0963657 -0.0009599668 -0.073883794
000060 16 18 ca bd ce cd 37 3d c5 79 c2 bd 4d 3c 5d 3d
       -0.09867875 0.044874005 -0.09495882 0.054012585
000070 60 0e 50 bd 49 9d 44 bd 39 bf 7e bd a4 93 83 bd
       -0.05079496 -0.04800156 -0.062194083 -0.064246446
000080 1f a9 60 3d f0 4f 84 3d 8a 62 e0 bd 3c b9 5f 3d
       0.054848786 0.06460559 -0.10956295 0.054620013
000090 1c f4 0d bd 7e 86 33 3d 6d b4 d5 bc 27 cc b0 bd
       -0.03465663 0.043829434 -0.02608701 -0.08632689
0000a0 f2 05 33 3d 4e fb 20 bb 44 9b a3 3d ff 24 45 bc
       0.04370684 -0.0024563852 0.07988599 -0.012032746
0000b0 d3 f0 d7 bd 68 aa d5 3c 4e 19 99 bc b6 97 e4 3d
       -0.105439804 0.026082233 -0.018688824 0.11161749
0000c0 90 7a b2 bd 6a 9d 9f bd 07 b1 b0 3c 16 8b f0 3c
       -0.08714783 -0.07793696 0.021568788 0.029363196
0000d0 9f 63 13 bd 0d 1e c2 bc 0b 54 ce bc 92 f5 9d bd
       -0.035983678 -0.02369597 -0.02518656 -0.077128544
0000e0 f2 51 1a 3c 81 ce ab bd 03 75 95 bd fd 2d 33 3b
       0.009418951 -0.08388997 -0.07297709 0.0027340644
0000f0 f0 c8 8d 3d 93 66 fc 3c 3d d8 48 bd 9c 8c 88 3d
       0.069230914 0.03081063 -0.049034346 0.06667444
000100 18 be fa 3c 4d 45 45 3d 0d fb 96 3d e0 59 b6 3d
       0.030608222 0.048161794 0.07372103 0.08903861
000110 b7 51 82 3d ae 3e 2b 3d a7 e1 42 bc 39 47 8b 3d
       0.06363242 0.041807823 -0.01189462 0.06800694
000120 86 53 81 bd 9a d1 b7 bc fb 09 5e bd 0b 6e d5 bc
       -0.06314759 -0.022438813 -0.054208737 -0.02605345
000130 38 e2 93 bc 84 fd 1e 3d 4f 50 5c bc a9 42 d8 bd
       -0.018052205 0.03881599 -0.013446881 -0.105595894
000140 5f b0 b5 bd a6 29 27 bd b0 e1 0d 3c b4 ab 3c bd
       -0.08871531 -0.040811203 0.008659765 -0.046062186
000150 6b e0 45 bc 25 9d b8 bc fe d7 a0 bb 0b 8e 0d 3d
       -0.012077431 -0.02253587 -0.004908561 0.03455929
000160 ba dc 2c 3d 9e b9 3f 3d 7d 84 c1 3c 58 40 7a 3c
       0.04220269 0.046807878 0.023622746 0.01527413
000170 4d b1 71 bd d2 b3 ad bd 9e 40 dd bd 43 d3 1b 3b
       -0.059006978 -0.08481564 -0.108033404 0.0023777045
000180 cb 6d c1 bd 9b 57 06 3c 64 3b 2a bd 6b 06 ac 3d
       -0.094447695 0.008199598 -0.041560546 0.08399662
000190 96 e8 c8 bb 26 5e 91 bd f9 99 a1 bc e1 19 8d 3d
       -0.006131242 -0.070980355 -0.01972674 0.06889702
0001a0 da 01 3d 3d 87 92 6a 3d 62 47 93 3d 5d d2 4d bd
       0.046144344 0.057268646 0.071913496 -0.050249446
0001b0 88 a1 b2 bd d3 9d b4 3d da 3b 87 bd f7 c4 12 3d
       -0.08722216 0.08819165 -0.06603213 0.03583237
0001c0 2b 3d 31 3d 9b c6 79 bd 15 a8 1e bc 6e f9 5b bd
       0.043271225 -0.06098042 -0.009683629 -0.05370467
0001d0 51 87 c9 3d 71 f7 e5 3c 66 a4 25 bc dd f9 ee 39
       0.09840263 0.02807209 -0.010109996 0.0004558106
0001e0 cd 51 e7 bc e8 f2 93 3d fc dd 8f 3d 66 93 b5 bd
       -0.028237248 0.07224065 0.07024762 -0.08866005
0001f0 82 b4 ee ba 72 e5 ff 3c fe 80 94 bc cd 69 7a bd
       -0.0018211755 0.031237338 -0.018127915 -0.061136056
000200 34 9b c0 bd 23 7a 48 3d 9a ab 9f bd ba c8 97 bc
       -0.09404603 0.048944604 -0.07796402 -0.018528331
000210 3a 78 3e 3d dd 45 2a 3c ef 27 7c 3d ae c5 50 3d
       0.046501376 0.010392633 0.06156152 0.050969772
000220 79 5a 7c bd 6f 7d e0 3c b9 66 89 bc 02 d1 72 bd
       -0.06160972 0.027403561 -0.016772615 -0.059281357
000230 3b 6c 20 3d 2a e1 10 3d 05 35 af bd 58 e2 f3 bc
       0.039165717 0.035370983 -0.085550345 -0.029771015
000240 4b 7d e2 bd 7a 89 7b bd 98 fe 81 3c 8e 37 b3 3c
       -0.11059054 -0.061410405 0.01586847 0.021877076
000250 bc ec 8e bd 94 57 f2 bc 3f 10 9a 3d 6a ea d1 3c
       -0.06978747 -0.029582776 0.0752263 0.025624473
000260 6e 1e 72 bc 52 82 94 3d 85 f6 88 3d c7 14 ba ba
       -0.014777763 0.07251419 0.06687645 -0.0014196866
000270 24 be ac bd 83 ae d0 3c 84 15 88 3d ad db c4 bc
       -0.08434704 0.025473839 0.06644729 -0.02403053
000280 8c c8 b2 bd b7 2d a8 bd bc 38 83 bd ae 28 a0 3d
       -0.087296575 -0.082118444 -0.064073056 0.07820259
000290 b1 bb 67 3d 4f 0d 2a bd 41 2e 25 bd d5 28 80 bb
       0.05657548 -0.0415166 -0.040327314 -0.0039111176
0002a0 74 0a 32 bd 2f 1e 89 3d f1 d0 c6 bc fa 8b 43 3c
       -0.043467 0.0669521 -0.024269553 0.0119352285
0002b0 0f 10 c4 3d 3d 93 98 3d de c4 02 3d 08 34 83 3d
       0.095733754 0.074499585 0.03192603 0.064064085
0002c0 ec ef a4 bb b8 47 dc 3b 9c 94 55 bd 4e 27 92 bd
       -0.0050334837 0.0067224167 -0.052143678 -0.07136403
0002d0 ab fd 1c bd 9e 7e 99 3d 30 52 ac bd 0f 6a 49 bd
       -0.038327854 0.074948534 -0.084141135 -0.04917341
0002e0 7c e9 79 3b 50 72 af bd 8b 26 c2 bd 0c 05 c0 bc
       0.0038133552 -0.08566725 -0.09480008 -0.023439907
0002f0 39 18 7a bd b5 0e a2 3d 18 70 72 3d 2d 1d 9a bc
       -0.061058257 0.079129614 0.059188932 -0.01881274
000300 f4 75 77 bd 16 dc 4a bc 94 b5 a4 bd 85 29 00 ba
       -0.060415223 -0.012381574 -0.08042446 -0.00048889994
000310 f9 20 31 3d ac 82 00 3d 3e bb bd bd 3f 87 03 bd
       0.043244336 0.03137462 -0.09264229 -0.032111403
000320 80 e1 9b 3d 1e fa 6d 3d 8c 4f 23 3d 6f b6 47 3d
       0.0761137 0.05809986 0.039870784 0.048757967
000330 96 65 d4 3d f9 c8 a6 bd ac cf 94 bc 55 48 b2 bd
       0.103709385 -0.08143801 -0.018165432 -0.087052025
000340 33 68 7c bd 69 e1 89 3d 43 a1 09 bc 2a 75 79 3d
       -0.06162281 0.06732447 -0.008400264 0.060902752
000350 ef 6b b7 3d cb f6 9b bd af 10 13 bd 9b 9e 1f bd
       0.089561336 -0.076154314 -0.035904583 -0.038969617
000360 2a 7d 36 bd 20 ae 7b 3d 84 6e bc bd d0 26 7b 3c
       -0.04455296 0.061445355 -0.09200767 0.015329078
000370 5c c9 f5 bb df 0e 87 bd 5f e4 64 bd f9 89 78 bd
       -0.0075008105 -0.06594633 -0.055881854 -0.060678456
000380 a3 8a 9d bd 62 d4 a8 bd a6 4c 7f 3d 87 0e 35 3d
       -0.076924585 -0.08243634 0.062328957 0.044203307
000390 49 68 2c bd a0 c9 92 bc 1a 87 c1 bd 7d fb f5 3c
       -0.04209164 -0.017918408 -0.09449597 0.030027146
0003a0 43 7a 25 3d 22 96 38 3d cd 99 3b 3c 5e 99 96 3d
       0.0403998 0.045065053 0.011450243 0.07353471
0003b0 2f a4 9c 3d ae e3 60 3d b5 70 db 3d a3 d8 67 bd
       0.07648503 0.054904632 0.107148565 -0.056603085
0003c0 c6 b3 9c 3d 89 1b 7a bd 65 9a af 3d d7 f0 2f 3d
       0.076514766 -0.061061416 0.0857437 0.042954292
0003d0 0d 80 66 bc 0d c8 3c 3d e8 5c 17 bd 4a 4b 15 bb
       -0.014068616 0.04608922 -0.036953837 -0.0022780471
0003e0 05 06 8e bd b0 86 89 3d f4 4f 61 3c 75 5e 77 3c
       -0.06934742 0.06715143 0.0137519725 0.015098204
0003f0 29 7f ad bd ce 05 0d 3d d5 fb 8a 3d f8 82 b8 3c
       -0.084715195 0.034429364 0.067863144 0.022523388

4.bias f4 [6]
000000 f4 4e a6 bd ac 5e 07 3c 7e 90 0e bd da 75 11 bd
       -0.08120528 0.008262318 -0.034805767 -0.035512783
000010 4c cb 7d 3d f8 ab 1b 3c
       0.061961457 0.00950145
